ST Edge AI Core v2.2.0-20266 2adc00962
Created date          : 2026-07-18 01:10:58
Parameters            : generate --target stm32h7 --name llieai -m D:/LLIE_Project/stm32/onnx/ghost_esp_dark_w12_m24_gain3_res035_plateau_score_best_monitor_qdq.onnx --compression none --verbosity 1 --workspace C:/Users/trann/AppData/Local/Temp/mxAI_workspace47170569640008601065540201719363 --output C:/Users/trann/.stm32cubemx/network_output

Exec/report summary (generate)
-------------------------------------------------------------------------------------------------------------------------------------
model file         :   D:\LLIE_Project\stm32\onnx\ghost_esp_dark_w12_m24_gain3_res035_plateau_score_best_monitor_qdq.onnx            
type               :   onnx                                                                                                          
c_name             :   llieai                                                                                                        
compression        :   none                                                                                                          
options            :   allocate-inputs, allocate-outputs                                                                             
optimization       :   balanced                                                                                                      
target/series      :   stm32h7                                                                                                       
workspace dir      :   C:\Users\trann\AppData\Local\Temp\mxAI_workspace47170569640008601065540201719363                              
output dir         :   C:\Users\trann\.stm32cubemx\network_output                                                                    
model_fmt          :   us/ua per tensor                                                                                              
model_name         :   ghost_esp_dark_w12_m24_gain3_res035_plateau_score_best_monitor_qdq                                            
model_hash         :   0x3777e2ff6f389faf07aa5b524e693dea                                                                            
params #           :   5,137 items (20.07 KiB)                                                                                       
-------------------------------------------------------------------------------------------------------------------------------------
input 1/1          :   'input_rgb', uint8(1x3x96x96), 27.00 KBytes, QLinear(0.003733412,0,uint8), activations                        
output 1/1         :   'enhanced_rgb_Quant..ranspose_0', uint8(1x3x96x96), 27.00 KBytes, QLinear(0.003921569,0,uint8), activations   
macc               :   19,330,819                                                                                                    
weights (ro)       :   5,944 B (5.80 KiB) (1 segment) / -14,604(-71.1%) vs float model                                               
activations (rw)   :   425,260 B (415.29 KiB) (1 segment) *                                                                          
ram (total)        :   425,260 B (415.29 KiB) = 425,260 + 0 + 0                                                                      
-------------------------------------------------------------------------------------------------------------------------------------
(*) 'input'/'output' buffers are allocated in the activations buffer

Model name - ghost_esp_dark_w12_m24_gain3_res035_plateau_score_best_monitor_qdq
------ ---------------------------------------------------------------- ---------------------- ------------ ----------- -------------------------------- --- ---------------- ------------------- ---------------------------------- 
m_id   layer (type,original)                                            oshape                 param/size          macc                     connected to   | c_size           c_macc              c_type                             
------ ---------------------------------------------------------------- ---------------------- ------------ ----------- -------------------------------- --- ---------------- ------------------- ---------------------------------- 
119    _dark_map_Constant_output_0 (Placeholder, Sub)                   []                     1/4                                                         |                  +1(+100.0%)         Eltwise/sub_[4]                    
------ ---------------------------------------------------------------- ---------------------- ------------ ----------- -------------------------------- --- ---------------- ------------------- ---------------------------------- 
123    _dark_map_Constant_1_output_0 (Placeholder, Sub)                 []                     1/4                                                         |                  +9,216(+100.0%)     Eltwise/sub_[6]                    
------ ---------------------------------------------------------------- ---------------------- ------------ ----------- -------------------------------- --- ---------------- ------------------- ---------------------------------- 
125    _dark_map_Constant_2_output_0 (Placeholder, Div)                 []                     1/4                                                         |                  +46,080(+100.0%)    Eltwise/div_[7]                    
------ ---------------------------------------------------------------- ---------------------- ------------ ----------- -------------------------------- --- ---------------- ------------------- ---------------------------------- 
225    _Constant_11_output_0 (Placeholder, Div)                         []                     1/4                                                         |                  +193,536(+100.0%)   Eltwise/div_/Conversion_[49, 50]   
------ ---------------------------------------------------------------- ---------------------- ------------ ----------- -------------------------------- --- ---------------- ------------------- ---------------------------------- 
1      _Constant_16_output_0 (Placeholder, Div)                         []                     1/4                                                         | -4(-100.0%)      +13,824(+100.0%)    Transpose_[o][54]                  
------ ---------------------------------------------------------------- ---------------------- ------------ ----------- -------------------------------- --- ---------------- ------------------- ---------------------------------- 
228    _Constant_17_output_0 (Placeholder, Sub)                         []                     1/4                                                         |                  +82,944(+100.0%)    Eltwise/sub_/Conversion_[43, 44]   
------ ---------------------------------------------------------------- ---------------------- ------------ ----------- -------------------------------- --- ---------------- ------------------- ---------------------------------- 
0      input_rgb (Input, )                                              [b:1,h:96,w:96,c:3]                                                                |                                      
------ ---------------------------------------------------------------- ---------------------- ------------ ----------- -------------------------------- --- ---------------- ------------------- ---------------------------------- 
88     input_rgb_Quantize..ear_Output (Conversion, QuantizeLinear)      [b:1,h:96,w:96,c:3]                      55,296                        input_rgb   |                  -55,296(-100.0%)    
------ ---------------------------------------------------------------- ---------------------- ------------ ----------- -------------------------------- --- ---------------- ------------------- ---------------------------------- 
89     onnxMul_199_Dequan..tput_const (Placeholder, DequantizeLinear)   [b:1,h:1,w:1,c:3]      3/12                                                        | -12(-100.0%)                         
------ ---------------------------------------------------------------- ---------------------- ------------ ----------- -------------------------------- --- ---------------- ------------------- ---------------------------------- 
106    input_rgb_Dequanti..ear_Output (Conversion, DequantizeLinear)    [b:1,h:96,w:96,c:3]                      55,296   input_rgb_Quantize..ear_Output   |                  -55,296(-100.0%)    
------ ---------------------------------------------------------------- ---------------------- ------------ ----------- -------------------------------- --- ---------------- ------------------- ---------------------------------- 
107    _Constant_10_outpu..tput_const (Placeholder, DequantizeLinear)   []                     1/4                                                         | -4(-100.0%)                          
------ ---------------------------------------------------------------- ---------------------- ------------ ----------- -------------------------------- --- ---------------- ------------------- ---------------------------------- 
108    _Constant_12_outpu..tput_const (Placeholder, DequantizeLinear)   []                     1/4                                                         | -4(-100.0%)                          
------ ---------------------------------------------------------------- ---------------------- ------------ ----------- -------------------------------- --- ---------------- ------------------- ---------------------------------- 
109    _Constant_13_outpu..tput_const (Placeholder, DequantizeLinear)   []                     1/4                                                         | -4(-100.0%)                          
------ ---------------------------------------------------------------- ---------------------- ------------ ----------- -------------------------------- --- ---------------- ------------------- ---------------------------------- 
110    _Constant_18_outpu..tput_const (Placeholder, DequantizeLinear)   []                     1/4                                                         | -4(-100.0%)                          
------ ---------------------------------------------------------------- ---------------------- ------------ ----------- -------------------------------- --- ---------------- ------------------- ---------------------------------- 
111    _dark_map_Mul_output_0 (Eltwise, Mul)                            [b:1,h:96,w:96,c:3]                      27,648   input_rgb_Dequanti..ear_Output   | +3(+100.0%)      +55,296(+200.0%)    Eltwise/mul_/Conversion_[1, 2]     
                                                                                                                          onnxMul_199_Dequan..tput_const   | 
------ ---------------------------------------------------------------- ---------------------- ------------ ----------- -------------------------------- --- ---------------- ------------------- ---------------------------------- 
112    _stem_stem_1_Clip_output_0 (Conv2D, Conv)                        [b:1,h:96,w:96,c:12]   336/1,344      2,985,996   input_rgb_Dequanti..ear_Output   | -972(-72.3%)                         Conv2D_[11]                        
------ ---------------------------------------------------------------- ---------------------- ------------ ----------- -------------------------------- --- ---------------- ------------------- ---------------------------------- 
113    _dark_map_Mul_outp..ear_Output (Conversion, QuantizeLinear)      [b:1,h:96,w:96,c:3]                      55,296           _dark_map_Mul_output_0   |                  -55,296(-100.0%)    
------ ---------------------------------------------------------------- ---------------------- ------------ ----------- -------------------------------- --- ---------------- ------------------- ---------------------------------- 
114    _stem_stem_1_Clip_..ear_Output (Conversion, QuantizeLinear)      [b:1,h:96,w:96,c:12]                    221,184       _stem_stem_1_Clip_output_0   |                  -221,184(-100.0%)   
------ ---------------------------------------------------------------- ---------------------- ------------ ----------- -------------------------------- --- ---------------- ------------------- ---------------------------------- 
115    _dark_map_Mul_outp..ear_Output (Conversion, DequantizeLinear)    [b:1,h:96,w:96,c:3]                      55,296   _dark_map_Mul_outp..ear_Output   |                  -55,296(-100.0%)    
------ ---------------------------------------------------------------- ---------------------- ------------ ----------- -------------------------------- --- ---------------- ------------------- ---------------------------------- 
116    _stem_stem_1_Clip_..ear_Output (Conversion, DequantizeLinear)    [b:1,h:96,w:96,c:12]                    221,184   _stem_stem_1_Clip_..ear_Output   |                  -221,184(-100.0%)   
------ ---------------------------------------------------------------- ---------------------- ------------ ----------- -------------------------------- --- ---------------- ------------------- ---------------------------------- 
117    _dark_map_ReduceSum_output_0 (Reduce, ReduceSum)                 [b:1,h:96,w:96,c:1]                      27,648   _dark_map_Mul_outp..ear_Output   |                                      Reduce_[3]                         
------ ---------------------------------------------------------------- ---------------------- ------------ ----------- -------------------------------- --- ---------------- ------------------- ---------------------------------- 
118    _down_depthwise_de..p_output_0 (Conv2D, Conv)                    [b:1,h:48,w:48,c:12]   120/480          248,844   _stem_stem_1_Clip_..ear_Output   | -324(-67.5%)                         Conv2D_[12]                        
------ ---------------------------------------------------------------- ---------------------- ------------ ----------- -------------------------------- --- ---------------- ------------------- ---------------------------------- 
119    _dark_map_Sub_output_0 (Eltwise, Sub)                            [b:1,h:96,w:96,c:1]                           1      _dark_map_Constant_output_0   |                  -1(-100.0%)         
                                                                                                                            _dark_map_ReduceSum_output_0   | 
------ ---------------------------------------------------------------- ---------------------- ------------ ----------- -------------------------------- --- ---------------- ------------------- ---------------------------------- 
120    _down_depthwise_de..ear_Output (Conversion, QuantizeLinear)      [b:1,h:48,w:48,c:12]                     55,296   _down_depthwise_de..p_output_0   |                  -55,296(-100.0%)    
------ ---------------------------------------------------------------- ---------------------- ------------ ----------- -------------------------------- --- ---------------- ------------------- ---------------------------------- 
121    _dark_map_AveragePool_output_0 (Pool, AveragePool)               [b:1,h:96,w:96,c:1]                     230,400           _dark_map_Sub_output_0   |                                      Pool_[5]                           
------ ---------------------------------------------------------------- ---------------------- ------------ ----------- -------------------------------- --- ---------------- ------------------- ---------------------------------- 
122    _down_depthwise_de..ear_Output (Conversion, DequantizeLinear)    [b:1,h:48,w:48,c:12]                     55,296   _down_depthwise_de..ear_Output   |                  -55,296(-100.0%)    
------ ---------------------------------------------------------------- ---------------------- ------------ ----------- -------------------------------- --- ---------------- ------------------- ---------------------------------- 
123    _dark_map_Sub_1_output_0 (Eltwise, Sub)                          [b:1,h:96,w:96,c:1]                       9,216   _dark_map_AveragePool_output_0   |                  -9,216(-100.0%)     
                                                                                                                           _dark_map_Constant_1_output_0   | 
------ ---------------------------------------------------------------- ---------------------- ------------ ----------- -------------------------------- --- ---------------- ------------------- ---------------------------------- 
124    _down_pointwise_po..p_output_0 (Conv2D, Conv)                    [b:1,h:48,w:48,c:24]   312/1,248        663,576   _down_depthwise_de..ear_Output   | -864(-69.2%)                         Conv2D_[13]                        
------ ---------------------------------------------------------------- ---------------------- ------------ ----------- -------------------------------- --- ---------------- ------------------- ---------------------------------- 
125    _dark_map_Div_output_0 (Eltwise, Div)                            [b:1,h:96,w:96,c:1]                      46,080         _dark_map_Sub_1_output_0   |                  -46,080(-100.0%)    
                                                                                                                           _dark_map_Constant_2_output_0   | 
------ ---------------------------------------------------------------- ---------------------- ------------ ----------- -------------------------------- --- ---------------- ------------------- ---------------------------------- 
126    _down_pointwise_po..ear_Output (Conversion, QuantizeLinear)      [b:1,h:48,w:48,c:24]                    110,592   _down_pointwise_po..p_output_0   |                  -110,592(-100.0%)   
------ ---------------------------------------------------------------- ---------------------- ------------ ----------- -------------------------------- --- ---------------- ------------------- ---------------------------------- 
127    _dark_map_Clip_output_0 (Nonlinearity, Clip)                     [b:1,h:96,w:96,c:1]                      18,432           _dark_map_Div_output_0   |                                      Nonlinearity_[8]                   
------ ---------------------------------------------------------------- ---------------------- ------------ ----------- -------------------------------- --- ---------------- ------------------- ---------------------------------- 
128    _down_pointwise_po..ear_Output (Conversion, DequantizeLinear)    [b:1,h:48,w:48,c:24]                    110,592   _down_pointwise_po..ear_Output   |                  -110,592(-100.0%)   
------ ---------------------------------------------------------------- ---------------------- ------------ ----------- -------------------------------- --- ---------------- ------------------- ---------------------------------- 
130    _blocks_blocks_0_p..p_output_0 (Conv2D, Conv)                    [b:1,h:48,w:48,c:12]   300/1,200        663,564   _down_pointwise_po..ear_Output   | -864(-72.0%)                         Conv2D_[14]                        
------ ---------------------------------------------------------------- ---------------------- ------------ ----------- -------------------------------- --- ---------------- ------------------- ---------------------------------- 
132    _blocks_blocks_0_p..ear_Output (Conversion, QuantizeLinear)      [b:1,h:48,w:48,c:12]                     55,296   _blocks_blocks_0_p..p_output_0   |                  -55,296(-100.0%)    
------ ---------------------------------------------------------------- ---------------------- ------------ ----------- -------------------------------- --- ---------------- ------------------- ---------------------------------- 
134    _blocks_blocks_0_p..ear_Output (Conversion, DequantizeLinear)    [b:1,h:48,w:48,c:12]                     55,296   _blocks_blocks_0_p..ear_Output   |                  -55,296(-100.0%)    
------ ---------------------------------------------------------------- ---------------------- ------------ ----------- -------------------------------- --- ---------------- ------------------- ---------------------------------- 
135    _Resize_output_0 (Resize, Resize)                                [b:1,h:48,w:48,c:1]                                      _dark_map_Clip_output_0   |                  +4,608(+100.0%)     Resize_/Conversion_[9, 10]         
------ ---------------------------------------------------------------- ---------------------- ------------ ----------- -------------------------------- --- ---------------- ------------------- ---------------------------------- 
136    _blocks_blocks_0_c..p_output_0 (Conv2D, Conv)                    [b:1,h:48,w:48,c:12]   120/480          248,844   _blocks_blocks_0_p..ear_Output   | -324(-67.5%)                         Conv2D_[15]                        
------ ---------------------------------------------------------------- ---------------------- ------------ ----------- -------------------------------- --- ---------------- ------------------- ---------------------------------- 
137    _Resize_output_0_Q..ear_Output (Conversion, QuantizeLinear)      [b:1,h:48,w:48,c:1]                       4,608                 _Resize_output_0   |                  -4,608(-100.0%)     
------ ---------------------------------------------------------------- ---------------------- ------------ ----------- -------------------------------- --- ---------------- ------------------- ---------------------------------- 
138    _blocks_blocks_0_c..ear_Output (Conversion, QuantizeLinear)      [b:1,h:48,w:48,c:12]                     55,296   _blocks_blocks_0_c..p_output_0   |                  -55,296(-100.0%)    
------ ---------------------------------------------------------------- ---------------------- ------------ ----------- -------------------------------- --- ---------------- ------------------- ---------------------------------- 
139    _Resize_output_0_D..ear_Output (Conversion, DequantizeLinear)    [b:1,h:48,w:48,c:1]                       4,608   _Resize_output_0_Q..ear_Output   |                  -4,608(-100.0%)     
------ ---------------------------------------------------------------- ---------------------- ------------ ----------- -------------------------------- --- ---------------- ------------------- ---------------------------------- 
140    _blocks_blocks_0_c..ear_Output (Conversion, DequantizeLinear)    [b:1,h:48,w:48,c:12]                     55,296   _blocks_blocks_0_c..ear_Output   |                  -55,296(-100.0%)    
------ ---------------------------------------------------------------- ---------------------- ------------ ----------- -------------------------------- --- ---------------- ------------------- ---------------------------------- 
141    _blocks_blocks_0_C..t_output_0 (Concat, Concat)                  [b:1,h:48,w:48,c:24]                              _blocks_blocks_0_p..ear_Output   |                                      Concat_[16]                        
                                                                                                                          _blocks_blocks_0_c..ear_Output   | 
------ ---------------------------------------------------------------- ---------------------- ------------ ----------- -------------------------------- --- ---------------- ------------------- ---------------------------------- 
142    _blocks_blocks_0_C..ear_Output (Conversion, QuantizeLinear)      [b:1,h:48,w:48,c:24]                    110,592   _blocks_blocks_0_C..t_output_0   |                  -110,592(-100.0%)   
------ ---------------------------------------------------------------- ---------------------- ------------ ----------- -------------------------------- --- ---------------- ------------------- ---------------------------------- 
143    _blocks_blocks_0_C..ear_Output (Conversion, DequantizeLinear)    [b:1,h:48,w:48,c:24]                    110,592   _blocks_blocks_0_C..ear_Output   |                  -110,592(-100.0%)   
------ ---------------------------------------------------------------- ---------------------- ------------ ----------- -------------------------------- --- ---------------- ------------------- ---------------------------------- 
144    _blocks_blocks_0_p..v_output_0 (Conv2D, Conv)                    [b:1,h:48,w:48,c:24]   600/2,400      1,327,128   _blocks_blocks_0_C..ear_Output   | -1,728(-72.0%)                       Conv2D_[17]                        
------ ---------------------------------------------------------------- ---------------------- ------------ ----------- -------------------------------- --- ---------------- ------------------- ---------------------------------- 
145    _blocks_blocks_0_p..ear_Output (Conversion, QuantizeLinear)      [b:1,h:48,w:48,c:24]                    110,592   _blocks_blocks_0_p..v_output_0   |                  -110,592(-100.0%)   
------ ---------------------------------------------------------------- ---------------------- ------------ ----------- -------------------------------- --- ---------------- ------------------- ---------------------------------- 
146    _blocks_blocks_0_p..ear_Output (Conversion, DequantizeLinear)    [b:1,h:48,w:48,c:24]                    110,592   _blocks_blocks_0_p..ear_Output   |                  -110,592(-100.0%)   
------ ---------------------------------------------------------------- ---------------------- ------------ ----------- -------------------------------- --- ---------------- ------------------- ---------------------------------- 
147    _blocks_blocks_0_a..p_output_0 (Eltwise, Add)                    [b:1,h:48,w:48,c:24]                     55,296   _down_pointwise_po..ear_Output   |                                      Eltwise/add_[18]                   
                                                                                                                          _blocks_blocks_0_p..ear_Output   | 
------ ---------------------------------------------------------------- ---------------------- ------------ ----------- -------------------------------- --- ---------------- ------------------- ---------------------------------- 
148    _blocks_blocks_0_a..ear_Output (Conversion, QuantizeLinear)      [b:1,h:48,w:48,c:24]                    110,592   _blocks_blocks_0_a..p_output_0   |                  -110,592(-100.0%)   
------ ---------------------------------------------------------------- ---------------------- ------------ ----------- -------------------------------- --- ---------------- ------------------- ---------------------------------- 
149    _blocks_blocks_0_a..ear_Output (Conversion, DequantizeLinear)    [b:1,h:48,w:48,c:24]                    110,592   _blocks_blocks_0_a..ear_Output   |                  -110,592(-100.0%)   
------ ---------------------------------------------------------------- ---------------------- ------------ ----------- -------------------------------- --- ---------------- ------------------- ---------------------------------- 
150    _blocks_blocks_1_p..p_output_0 (Conv2D, Conv)                    [b:1,h:48,w:48,c:12]   300/1,200        663,564   _blocks_blocks_0_a..ear_Output   | -864(-72.0%)                         Conv2D_[19]                        
------ ---------------------------------------------------------------- ---------------------- ------------ ----------- -------------------------------- --- ---------------- ------------------- ---------------------------------- 
151    _blocks_blocks_1_p..ear_Output (Conversion, QuantizeLinear)      [b:1,h:48,w:48,c:12]                     55,296   _blocks_blocks_1_p..p_output_0   |                  -55,296(-100.0%)    
------ ---------------------------------------------------------------- ---------------------- ------------ ----------- -------------------------------- --- ---------------- ------------------- ---------------------------------- 
152    _blocks_blocks_1_p..ear_Output (Conversion, DequantizeLinear)    [b:1,h:48,w:48,c:12]                     55,296   _blocks_blocks_1_p..ear_Output   |                  -55,296(-100.0%)    
------ ---------------------------------------------------------------- ---------------------- ------------ ----------- -------------------------------- --- ---------------- ------------------- ---------------------------------- 
153    _blocks_blocks_1_c..p_output_0 (Conv2D, Conv)                    [b:1,h:48,w:48,c:12]   120/480          248,844   _blocks_blocks_1_p..ear_Output   | -324(-67.5%)                         Conv2D_[20]                        
------ ---------------------------------------------------------------- ---------------------- ------------ ----------- -------------------------------- --- ---------------- ------------------- ---------------------------------- 
154    _blocks_blocks_1_c..ear_Output (Conversion, QuantizeLinear)      [b:1,h:48,w:48,c:12]                     55,296   _blocks_blocks_1_c..p_output_0   |                  -55,296(-100.0%)    
------ ---------------------------------------------------------------- ---------------------- ------------ ----------- -------------------------------- --- ---------------- ------------------- ---------------------------------- 
155    _blocks_blocks_1_c..ear_Output (Conversion, DequantizeLinear)    [b:1,h:48,w:48,c:12]                     55,296   _blocks_blocks_1_c..ear_Output   |                  -55,296(-100.0%)    
------ ---------------------------------------------------------------- ---------------------- ------------ ----------- -------------------------------- --- ---------------- ------------------- ---------------------------------- 
156    _blocks_blocks_1_C..t_output_0 (Concat, Concat)                  [b:1,h:48,w:48,c:24]                              _blocks_blocks_1_p..ear_Output   |                                      Concat_[21]                        
                                                                                                                          _blocks_blocks_1_c..ear_Output   | 
------ ---------------------------------------------------------------- ---------------------- ------------ ----------- -------------------------------- --- ---------------- ------------------- ---------------------------------- 
157    _blocks_blocks_1_C..ear_Output (Conversion, QuantizeLinear)      [b:1,h:48,w:48,c:24]                    110,592   _blocks_blocks_1_C..t_output_0   |                  -110,592(-100.0%)   
------ ---------------------------------------------------------------- ---------------------- ------------ ----------- -------------------------------- --- ---------------- ------------------- ---------------------------------- 
158    _blocks_blocks_1_C..ear_Output (Conversion, DequantizeLinear)    [b:1,h:48,w:48,c:24]                    110,592   _blocks_blocks_1_C..ear_Output   |                  -110,592(-100.0%)   
------ ---------------------------------------------------------------- ---------------------- ------------ ----------- -------------------------------- --- ---------------- ------------------- ---------------------------------- 
159    _blocks_blocks_1_p..v_output_0 (Conv2D, Conv)                    [b:1,h:48,w:48,c:24]   600/2,400      1,327,128   _blocks_blocks_1_C..ear_Output   | -1,728(-72.0%)                       Conv2D_[22]                        
------ ---------------------------------------------------------------- ---------------------- ------------ ----------- -------------------------------- --- ---------------- ------------------- ---------------------------------- 
160    _blocks_blocks_1_p..ear_Output (Conversion, QuantizeLinear)      [b:1,h:48,w:48,c:24]                    110,592   _blocks_blocks_1_p..v_output_0   |                  -110,592(-100.0%)   
------ ---------------------------------------------------------------- ---------------------- ------------ ----------- -------------------------------- --- ---------------- ------------------- ---------------------------------- 
161    _blocks_blocks_1_p..ear_Output (Conversion, DequantizeLinear)    [b:1,h:48,w:48,c:24]                    110,592   _blocks_blocks_1_p..ear_Output   |                  -110,592(-100.0%)   
------ ---------------------------------------------------------------- ---------------------- ------------ ----------- -------------------------------- --- ---------------- ------------------- ---------------------------------- 
162    _blocks_blocks_1_a..p_output_0 (Eltwise, Add)                    [b:1,h:48,w:48,c:24]                     55,296   _blocks_blocks_0_a..ear_Output   |                                      Eltwise/add_[23]                   
                                                                                                                          _blocks_blocks_1_p..ear_Output   | 
------ ---------------------------------------------------------------- ---------------------- ------------ ----------- -------------------------------- --- ---------------- ------------------- ---------------------------------- 
163    _blocks_blocks_1_a..ear_Output (Conversion, QuantizeLinear)      [b:1,h:48,w:48,c:24]                    110,592   _blocks_blocks_1_a..p_output_0   |                  -110,592(-100.0%)   
------ ---------------------------------------------------------------- ---------------------- ------------ ----------- -------------------------------- --- ---------------- ------------------- ---------------------------------- 
164    _blocks_blocks_1_a..ear_Output (Conversion, DequantizeLinear)    [b:1,h:48,w:48,c:24]                    110,592   _blocks_blocks_1_a..ear_Output   |                  -110,592(-100.0%)   
------ ---------------------------------------------------------------- ---------------------- ------------ ----------- -------------------------------- --- ---------------- ------------------- ---------------------------------- 
165    _blocks_blocks_2_p..p_output_0 (Conv2D, Conv)                    [b:1,h:48,w:48,c:12]   300/1,200        663,564   _blocks_blocks_1_a..ear_Output   | -864(-72.0%)                         Conv2D_[24]                        
------ ---------------------------------------------------------------- ---------------------- ------------ ----------- -------------------------------- --- ---------------- ------------------- ---------------------------------- 
166    _blocks_blocks_2_p..ear_Output (Conversion, QuantizeLinear)      [b:1,h:48,w:48,c:12]                     55,296   _blocks_blocks_2_p..p_output_0   |                  -55,296(-100.0%)    
------ ---------------------------------------------------------------- ---------------------- ------------ ----------- -------------------------------- --- ---------------- ------------------- ---------------------------------- 
167    _blocks_blocks_2_p..ear_Output (Conversion, DequantizeLinear)    [b:1,h:48,w:48,c:12]                     55,296   _blocks_blocks_2_p..ear_Output   |                  -55,296(-100.0%)    
------ ---------------------------------------------------------------- ---------------------- ------------ ----------- -------------------------------- --- ---------------- ------------------- ---------------------------------- 
168    _blocks_blocks_2_c..p_output_0 (Conv2D, Conv)                    [b:1,h:48,w:48,c:12]   120/480          248,844   _blocks_blocks_2_p..ear_Output   | -324(-67.5%)                         Conv2D_[25]                        
------ ---------------------------------------------------------------- ---------------------- ------------ ----------- -------------------------------- --- ---------------- ------------------- ---------------------------------- 
169    _blocks_blocks_2_c..ear_Output (Conversion, QuantizeLinear)      [b:1,h:48,w:48,c:12]                     55,296   _blocks_blocks_2_c..p_output_0   |                  -55,296(-100.0%)    
------ ---------------------------------------------------------------- ---------------------- ------------ ----------- -------------------------------- --- ---------------- ------------------- ---------------------------------- 
170    _blocks_blocks_2_c..ear_Output (Conversion, DequantizeLinear)    [b:1,h:48,w:48,c:12]                     55,296   _blocks_blocks_2_c..ear_Output   |                  -55,296(-100.0%)    
------ ---------------------------------------------------------------- ---------------------- ------------ ----------- -------------------------------- --- ---------------- ------------------- ---------------------------------- 
171    _blocks_blocks_2_C..t_output_0 (Concat, Concat)                  [b:1,h:48,w:48,c:24]                              _blocks_blocks_2_p..ear_Output   |                                      Concat_[26]                        
                                                                                                                          _blocks_blocks_2_c..ear_Output   | 
------ ---------------------------------------------------------------- ---------------------- ------------ ----------- -------------------------------- --- ---------------- ------------------- ---------------------------------- 
172    _blocks_blocks_2_C..ear_Output (Conversion, QuantizeLinear)      [b:1,h:48,w:48,c:24]                    110,592   _blocks_blocks_2_C..t_output_0   |                  -110,592(-100.0%)   
------ ---------------------------------------------------------------- ---------------------- ------------ ----------- -------------------------------- --- ---------------- ------------------- ---------------------------------- 
173    _blocks_blocks_2_C..ear_Output (Conversion, DequantizeLinear)    [b:1,h:48,w:48,c:24]                    110,592   _blocks_blocks_2_C..ear_Output   |                  -110,592(-100.0%)   
------ ---------------------------------------------------------------- ---------------------- ------------ ----------- -------------------------------- --- ---------------- ------------------- ---------------------------------- 
174    _blocks_blocks_2_p..v_output_0 (Conv2D, Conv)                    [b:1,h:48,w:48,c:24]   600/2,400      1,327,128   _blocks_blocks_2_C..ear_Output   | -1,728(-72.0%)                       Conv2D_[27]                        
------ ---------------------------------------------------------------- ---------------------- ------------ ----------- -------------------------------- --- ---------------- ------------------- ---------------------------------- 
175    _blocks_blocks_2_p..ear_Output (Conversion, QuantizeLinear)      [b:1,h:48,w:48,c:24]                    110,592   _blocks_blocks_2_p..v_output_0   |                  -110,592(-100.0%)   
------ ---------------------------------------------------------------- ---------------------- ------------ ----------- -------------------------------- --- ---------------- ------------------- ---------------------------------- 
176    _blocks_blocks_2_p..ear_Output (Conversion, DequantizeLinear)    [b:1,h:48,w:48,c:24]                    110,592   _blocks_blocks_2_p..ear_Output   |                  -110,592(-100.0%)   
------ ---------------------------------------------------------------- ---------------------- ------------ ----------- -------------------------------- --- ---------------- ------------------- ---------------------------------- 
177    _blocks_blocks_2_a..p_output_0 (Eltwise, Add)                    [b:1,h:48,w:48,c:24]                     55,296   _blocks_blocks_1_a..ear_Output   |                                      Eltwise/add_[28]                   
                                                                                                                          _blocks_blocks_2_p..ear_Output   | 
------ ---------------------------------------------------------------- ---------------------- ------------ ----------- -------------------------------- --- ---------------- ------------------- ---------------------------------- 
178    _blocks_blocks_2_a..ear_Output (Conversion, QuantizeLinear)      [b:1,h:48,w:48,c:24]                    110,592   _blocks_blocks_2_a..p_output_0   |                  -110,592(-100.0%)   
------ ---------------------------------------------------------------- ---------------------- ------------ ----------- -------------------------------- --- ---------------- ------------------- ---------------------------------- 
179    _blocks_blocks_2_a..ear_Output (Conversion, DequantizeLinear)    [b:1,h:48,w:48,c:24]                    110,592   _blocks_blocks_2_a..ear_Output   |                  -110,592(-100.0%)   
------ ---------------------------------------------------------------- ---------------------- ------------ ----------- -------------------------------- --- ---------------- ------------------- ---------------------------------- 
180    _Concat_1_output_0 (Concat, Concat)                              [b:1,h:48,w:48,c:25]                              _blocks_blocks_2_a..ear_Output   |                                      Concat_[29]                        
                                                                                                                          _Resize_output_0_D..ear_Output   | 
------ ---------------------------------------------------------------- ---------------------- ------------ ----------- -------------------------------- --- ---------------- ------------------- ---------------------------------- 
181    _Concat_1_output_0..ear_Output (Conversion, QuantizeLinear)      [b:1,h:48,w:48,c:25]                    115,200               _Concat_1_output_0   |                  -115,200(-100.0%)   
------ ---------------------------------------------------------------- ---------------------- ------------ ----------- -------------------------------- --- ---------------- ------------------- ---------------------------------- 
182    _Concat_1_output_0..ear_Output (Conversion, DequantizeLinear)    [b:1,h:48,w:48,c:25]                    115,200   _Concat_1_output_0..ear_Output   |                  -115,200(-100.0%)   
------ ---------------------------------------------------------------- ---------------------- ------------ ----------- -------------------------------- --- ---------------- ------------------- ---------------------------------- 
183    _dark_fuse_dark_fu..p_output_0 (Conv2D, Conv)                    [b:1,h:48,w:48,c:24]   624/2,496      1,382,424   _Concat_1_output_0..ear_Output   | -1,800(-72.1%)                       Conv2D_[30]                        
------ ---------------------------------------------------------------- ---------------------- ------------ ----------- -------------------------------- --- ---------------- ------------------- ---------------------------------- 
184    _dark_fuse_dark_fu..ear_Output (Conversion, QuantizeLinear)      [b:1,h:48,w:48,c:24]                    110,592   _dark_fuse_dark_fu..p_output_0   |                  -110,592(-100.0%)   
------ ---------------------------------------------------------------- ---------------------- ------------ ----------- -------------------------------- --- ---------------- ------------------- ---------------------------------- 
185    _dark_fuse_dark_fu..ear_Output (Conversion, DequantizeLinear)    [b:1,h:48,w:48,c:24]                    110,592   _dark_fuse_dark_fu..ear_Output   |                  -110,592(-100.0%)   
------ ---------------------------------------------------------------- ---------------------- ------------ ----------- -------------------------------- --- ---------------- ------------------- ---------------------------------- 
189    _Resize_1_output_0 (Resize, Resize)                              [b:1,h:96,w:96,c:24]                              _dark_fuse_dark_fu..ear_Output   |                                      Resize_[31]                        
------ ---------------------------------------------------------------- ---------------------- ------------ ----------- -------------------------------- --- ---------------- ------------------- ---------------------------------- 
190    _Resize_1_output_0..ear_Output (Conversion, QuantizeLinear)      [b:1,h:96,w:96,c:24]                    442,368               _Resize_1_output_0   |                  -442,368(-100.0%)   
------ ---------------------------------------------------------------- ---------------------- ------------ ----------- -------------------------------- --- ---------------- ------------------- ---------------------------------- 
191    _Resize_1_output_0..ear_Output (Conversion, DequantizeLinear)    [b:1,h:96,w:96,c:24]                    442,368   _Resize_1_output_0..ear_Output   |                  -442,368(-100.0%)   
------ ---------------------------------------------------------------- ---------------------- ------------ ----------- -------------------------------- --- ---------------- ------------------- ---------------------------------- 
192    _up_up_1_Clip_output_0 (Conv2D, Conv)                            [b:1,h:96,w:96,c:12]   300/1,200      2,654,220   _Resize_1_output_0..ear_Output   | -864(-72.0%)                         Conv2D_[32]                        
------ ---------------------------------------------------------------- ---------------------- ------------ ----------- -------------------------------- --- ---------------- ------------------- ---------------------------------- 
193    _up_up_1_Clip_outp..ear_Output (Conversion, QuantizeLinear)      [b:1,h:96,w:96,c:12]                    221,184           _up_up_1_Clip_output_0   |                  -221,184(-100.0%)   
------ ---------------------------------------------------------------- ---------------------- ------------ ----------- -------------------------------- --- ---------------- ------------------- ---------------------------------- 
194    _up_up_1_Clip_outp..ear_Output (Conversion, DequantizeLinear)    [b:1,h:96,w:96,c:12]                    221,184   _up_up_1_Clip_outp..ear_Output   |                  -221,184(-100.0%)   
------ ---------------------------------------------------------------- ---------------------- ------------ ----------- -------------------------------- --- ---------------- ------------------- ---------------------------------- 
195    _Add_output_0 (Eltwise, Add)                                     [b:1,h:96,w:96,c:12]                    110,592   _up_up_1_Clip_outp..ear_Output   |                                      Eltwise/add_[33]                   
                                                                                                                          _stem_stem_1_Clip_..ear_Output   | 
------ ---------------------------------------------------------------- ---------------------- ------------ ----------- -------------------------------- --- ---------------- ------------------- ---------------------------------- 
196    _Add_output_0_Quan..ear_Output (Conversion, QuantizeLinear)      [b:1,h:96,w:96,c:12]                    221,184                    _Add_output_0   |                  -221,184(-100.0%)   
------ ---------------------------------------------------------------- ---------------------- ------------ ----------- -------------------------------- --- ---------------- ------------------- ---------------------------------- 
197    _Add_output_0_Dequ..ear_Output (Conversion, DequantizeLinear)    [b:1,h:96,w:96,c:12]                    221,184   _Add_output_0_Quan..ear_Output   |                  -221,184(-100.0%)   
------ ---------------------------------------------------------------- ---------------------- ------------ ----------- -------------------------------- --- ---------------- ------------------- ---------------------------------- 
198    _refine_primary_pr..p_output_0 (Conv2D, Conv)                    [b:1,h:96,w:96,c:6]    78/312           663,558   _Add_output_0_Dequ..ear_Output   | -216(-69.2%)                         Conv2D_[34]                        
------ ---------------------------------------------------------------- ---------------------- ------------ ----------- -------------------------------- --- ---------------- ------------------- ---------------------------------- 
199    _refine_primary_pr..ear_Output (Conversion, QuantizeLinear)      [b:1,h:96,w:96,c:6]                     110,592   _refine_primary_pr..p_output_0   |                  -110,592(-100.0%)   
------ ---------------------------------------------------------------- ---------------------- ------------ ----------- -------------------------------- --- ---------------- ------------------- ---------------------------------- 
200    _refine_primary_pr..ear_Output (Conversion, DequantizeLinear)    [b:1,h:96,w:96,c:6]                     110,592   _refine_primary_pr..ear_Output   |                  -110,592(-100.0%)   
------ ---------------------------------------------------------------- ---------------------- ------------ ----------- -------------------------------- --- ---------------- ------------------- ---------------------------------- 
201    _refine_cheap_chea..p_output_0 (Conv2D, Conv)                    [b:1,h:96,w:96,c:6]    60/240           497,670   _refine_primary_pr..ear_Output   | -162(-67.5%)                         Conv2D_[35]                        
------ ---------------------------------------------------------------- ---------------------- ------------ ----------- -------------------------------- --- ---------------- ------------------- ---------------------------------- 
202    _refine_cheap_chea..ear_Output (Conversion, QuantizeLinear)      [b:1,h:96,w:96,c:6]                     110,592   _refine_cheap_chea..p_output_0   |                  -110,592(-100.0%)   
------ ---------------------------------------------------------------- ---------------------- ------------ ----------- -------------------------------- --- ---------------- ------------------- ---------------------------------- 
203    _refine_cheap_chea..ear_Output (Conversion, DequantizeLinear)    [b:1,h:96,w:96,c:6]                     110,592   _refine_cheap_chea..ear_Output   |                  -110,592(-100.0%)   
------ ---------------------------------------------------------------- ---------------------- ------------ ----------- -------------------------------- --- ---------------- ------------------- ---------------------------------- 
204    _refine_Concat_output_0 (Concat, Concat)                         [b:1,h:96,w:96,c:12]                              _refine_primary_pr..ear_Output   |                                      Concat_[36]                        
                                                                                                                          _refine_cheap_chea..ear_Output   | 
------ ---------------------------------------------------------------- ---------------------- ------------ ----------- -------------------------------- --- ---------------- ------------------- ---------------------------------- 
205    _refine_Concat_out..ear_Output (Conversion, QuantizeLinear)      [b:1,h:96,w:96,c:12]                    221,184          _refine_Concat_output_0   |                  -221,184(-100.0%)   
------ ---------------------------------------------------------------- ---------------------- ------------ ----------- -------------------------------- --- ---------------- ------------------- ---------------------------------- 
206    _refine_Concat_out..ear_Output (Conversion, DequantizeLinear)    [b:1,h:96,w:96,c:12]                    221,184   _refine_Concat_out..ear_Output   |                  -221,184(-100.0%)   
------ ---------------------------------------------------------------- ---------------------- ------------ ----------- -------------------------------- --- ---------------- ------------------- ---------------------------------- 
207    _refine_project_Conv_output_0 (Conv2D, Conv)                     [b:1,h:96,w:96,c:12]   156/624        1,327,116   _refine_Concat_out..ear_Output   | -432(-69.2%)                         Conv2D_[37]                        
------ ---------------------------------------------------------------- ---------------------- ------------ ----------- -------------------------------- --- ---------------- ------------------- ---------------------------------- 
208    _refine_project_Co..ear_Output (Conversion, QuantizeLinear)      [b:1,h:96,w:96,c:12]                    221,184    _refine_project_Conv_output_0   |                  -221,184(-100.0%)   
------ ---------------------------------------------------------------- ---------------------- ------------ ----------- -------------------------------- --- ---------------- ------------------- ---------------------------------- 
209    _refine_project_Co..ear_Output (Conversion, DequantizeLinear)    [b:1,h:96,w:96,c:12]                    221,184   _refine_project_Co..ear_Output   |                  -221,184(-100.0%)   
------ ---------------------------------------------------------------- ---------------------- ------------ ----------- -------------------------------- --- ---------------- ------------------- ---------------------------------- 
210    _refine_act_Clip_output_0 (Eltwise, Add)                         [b:1,h:96,w:96,c:12]                    110,592   _Add_output_0_Dequ..ear_Output   |                                      Eltwise/add_[38]                   
                                                                                                                          _refine_project_Co..ear_Output   | 
------ ---------------------------------------------------------------- ---------------------- ------------ ----------- -------------------------------- --- ---------------- ------------------- ---------------------------------- 
211    _refine_act_Clip_o..ear_Output (Conversion, QuantizeLinear)      [b:1,h:96,w:96,c:12]                    221,184        _refine_act_Clip_output_0   |                  -221,184(-100.0%)   
------ ---------------------------------------------------------------- ---------------------- ------------ ----------- -------------------------------- --- ---------------- ------------------- ---------------------------------- 
212    _refine_act_Clip_o..ear_Output (Conversion, DequantizeLinear)    [b:1,h:96,w:96,c:12]                    221,184   _refine_act_Clip_o..ear_Output   |                  -221,184(-100.0%)   
------ ---------------------------------------------------------------- ---------------------- ------------ ----------- -------------------------------- --- ---------------- ------------------- ---------------------------------- 
213    _Clip_output_0 (Conv2D, Conv)                                    [b:1,h:96,w:96,c:3]    39/156           331,779   _refine_act_Clip_o..ear_Output   | -108(-69.2%)                         Conv2D_[46]                        
------ ---------------------------------------------------------------- ---------------------- ------------ ----------- -------------------------------- --- ---------------- ------------------- ---------------------------------- 
214    _residual_head_Conv_output_0 (Conv2D, Conv)                      [b:1,h:96,w:96,c:3]    39/156           331,779   _refine_act_Clip_o..ear_Output   | -108(-69.2%)                         Conv2D_[39]                        
------ ---------------------------------------------------------------- ---------------------- ------------ ----------- -------------------------------- --- ---------------- ------------------- ---------------------------------- 
215    _Clip_output_0_Qua..ear_Output (Conversion, QuantizeLinear)      [b:1,h:96,w:96,c:3]                      55,296                   _Clip_output_0   |                  -55,296(-100.0%)    
------ ---------------------------------------------------------------- ---------------------- ------------ ----------- -------------------------------- --- ---------------- ------------------- ---------------------------------- 
216    _residual_head_Con..ear_Output (Conversion, QuantizeLinear)      [b:1,h:96,w:96,c:3]                      55,296     _residual_head_Conv_output_0   |                  -55,296(-100.0%)    
------ ---------------------------------------------------------------- ---------------------- ------------ ----------- -------------------------------- --- ---------------- ------------------- ---------------------------------- 
217    _Clip_output_0_Deq..ear_Output (Conversion, DequantizeLinear)    [b:1,h:96,w:96,c:3]                      55,296   _Clip_output_0_Qua..ear_Output   |                  -55,296(-100.0%)    
------ ---------------------------------------------------------------- ---------------------- ------------ ----------- -------------------------------- --- ---------------- ------------------- ---------------------------------- 
218    _residual_head_Con..ear_Output (Conversion, DequantizeLinear)    [b:1,h:96,w:96,c:3]                      55,296   _residual_head_Con..ear_Output   |                  -55,296(-100.0%)    
------ ---------------------------------------------------------------- ---------------------- ------------ ----------- -------------------------------- --- ---------------- ------------------- ---------------------------------- 
219    _Mul_output_0 (Eltwise, Mul)                                     [b:1,h:96,w:96,c:3]                      27,648   _Clip_output_0_Deq..ear_Output   | +1(+100.0%)      +55,296(+200.0%)    Eltwise/mul_/Conversion_[47, 48]   
                                                                                                                          _Constant_10_outpu..tput_const   | 
------ ---------------------------------------------------------------- ---------------------- ------------ ----------- -------------------------------- --- ---------------- ------------------- ---------------------------------- 
220    _Clip_1_output_0 (Eltwise, Add)                                  [b:1,h:96,w:96,c:3]                      27,648   _residual_head_Con..ear_Output   | +1(+100.0%)      +55,296(+200.0%)    Eltwise/add_/Conversion_[40, 41]   
                                                                                                                          _Constant_13_outpu..tput_const   | 
------ ---------------------------------------------------------------- ---------------------- ------------ ----------- -------------------------------- --- ---------------- ------------------- ---------------------------------- 
221    _Mul_output_0_Quan..ear_Output (Conversion, QuantizeLinear)      [b:1,h:96,w:96,c:3]                      55,296                    _Mul_output_0   |                  -55,296(-100.0%)    
------ ---------------------------------------------------------------- ---------------------- ------------ ----------- -------------------------------- --- ---------------- ------------------- ---------------------------------- 
222    _Clip_1_output_0_Q..ear_Output (Conversion, QuantizeLinear)      [b:1,h:96,w:96,c:3]                      55,296                 _Clip_1_output_0   |                  -55,296(-100.0%)    
------ ---------------------------------------------------------------- ---------------------- ------------ ----------- -------------------------------- --- ---------------- ------------------- ---------------------------------- 
223    _Mul_output_0_Dequ..ear_Output (Conversion, DequantizeLinear)    [b:1,h:96,w:96,c:3]                      55,296   _Mul_output_0_Quan..ear_Output   |                  -55,296(-100.0%)    
------ ---------------------------------------------------------------- ---------------------- ------------ ----------- -------------------------------- --- ---------------- ------------------- ---------------------------------- 
224    _Clip_1_output_0_D..ear_Output (Conversion, DequantizeLinear)    [b:1,h:96,w:96,c:3]                      55,296   _Clip_1_output_0_Q..ear_Output   |                  -55,296(-100.0%)    
------ ---------------------------------------------------------------- ---------------------- ------------ ----------- -------------------------------- --- ---------------- ------------------- ---------------------------------- 
225    _Div_output_0 (Eltwise, Div)                                     [b:1,h:96,w:96,c:3]                     138,240   _Mul_output_0_Dequ..ear_Output   |                  -138,240(-100.0%)   
                                                                                                                                   _Constant_11_output_0   | 
------ ---------------------------------------------------------------- ---------------------- ------------ ----------- -------------------------------- --- ---------------- ------------------- ---------------------------------- 
226    _Div_1_output_0 (Eltwise, Div)                                   [b:1,h:96,w:96,c:3]                     138,240   _Clip_1_output_0_D..ear_Output   | +4(+100.0%)                          Eltwise/div_[42]                   
                                                                                                                                   _Constant_16_output_0   | 
------ ---------------------------------------------------------------- ---------------------- ------------ ----------- -------------------------------- --- ---------------- ------------------- ---------------------------------- 
227    _Div_output_0_Quan..ear_Output (Conversion, QuantizeLinear)      [b:1,h:96,w:96,c:3]                      55,296                    _Div_output_0   |                  -55,296(-100.0%)    
------ ---------------------------------------------------------------- ---------------------- ------------ ----------- -------------------------------- --- ---------------- ------------------- ---------------------------------- 
228    _Sub_output_0 (Eltwise, Sub)                                     [b:1,h:96,w:96,c:3]                      27,648                  _Div_1_output_0   |                  -27,648(-100.0%)    
                                                                                                                                   _Constant_17_output_0   | 
------ ---------------------------------------------------------------- ---------------------- ------------ ----------- -------------------------------- --- ---------------- ------------------- ---------------------------------- 
229    _Div_output_0_Dequ..ear_Output (Conversion, DequantizeLinear)    [b:1,h:96,w:96,c:3]                      55,296   _Div_output_0_Quan..ear_Output   |                  -55,296(-100.0%)    
------ ---------------------------------------------------------------- ---------------------- ------------ ----------- -------------------------------- --- ---------------- ------------------- ---------------------------------- 
230    _Sub_output_0_Quan..ear_Output (Conversion, QuantizeLinear)      [b:1,h:96,w:96,c:3]                      55,296                    _Sub_output_0   |                  -55,296(-100.0%)    
------ ---------------------------------------------------------------- ---------------------- ------------ ----------- -------------------------------- --- ---------------- ------------------- ---------------------------------- 
231    _Add_1_output_0 (Eltwise, Add)                                   [b:1,h:96,w:96,c:3]                      27,648   _Div_output_0_Dequ..ear_Output   | +1(+100.0%)                          Eltwise/add_[51]                   
                                                                                                                          _Constant_12_outpu..tput_const   | 
------ ---------------------------------------------------------------- ---------------------- ------------ ----------- -------------------------------- --- ---------------- ------------------- ---------------------------------- 
232    _Sub_output_0_Dequ..ear_Output (Conversion, DequantizeLinear)    [b:1,h:96,w:96,c:3]                      55,296   _Sub_output_0_Quan..ear_Output   |                  -55,296(-100.0%)    
------ ---------------------------------------------------------------- ---------------------- ------------ ----------- -------------------------------- --- ---------------- ------------------- ---------------------------------- 
233    _Add_1_output_0_Qu..ear_Output (Conversion, QuantizeLinear)      [b:1,h:96,w:96,c:3]                      55,296                  _Add_1_output_0   |                  -55,296(-100.0%)    
------ ---------------------------------------------------------------- ---------------------- ------------ ----------- -------------------------------- --- ---------------- ------------------- ---------------------------------- 
234    _Mul_1_output_0 (Eltwise, Mul)                                   [b:1,h:96,w:96,c:3]                      27,648   _Sub_output_0_Dequ..ear_Output   | +1(+100.0%)                          Eltwise/mul_[45]                   
                                                                                                                          _Constant_18_outpu..tput_const   | 
------ ---------------------------------------------------------------- ---------------------- ------------ ----------- -------------------------------- --- ---------------- ------------------- ---------------------------------- 
235    _Add_1_output_0_De..ear_Output (Conversion, DequantizeLinear)    [b:1,h:96,w:96,c:3]                      55,296   _Add_1_output_0_Qu..ear_Output   |                  -55,296(-100.0%)    
------ ---------------------------------------------------------------- ---------------------- ------------ ----------- -------------------------------- --- ---------------- ------------------- ---------------------------------- 
236    _Mul_1_output_0_Qu..ear_Output (Conversion, QuantizeLinear)      [b:1,h:96,w:96,c:3]                      55,296                  _Mul_1_output_0   |                  -55,296(-100.0%)    
------ ---------------------------------------------------------------- ---------------------- ------------ ----------- -------------------------------- --- ---------------- ------------------- ---------------------------------- 
237    _Mul_2_output_0 (Eltwise, Mul)                                   [b:1,h:96,w:96,c:3]                      27,648   input_rgb_Dequanti..ear_Output   |                                      Eltwise/mul_[52]                   
                                                                                                                          _Add_1_output_0_De..ear_Output   | 
------ ---------------------------------------------------------------- ---------------------- ------------ ----------- -------------------------------- --- ---------------- ------------------- ---------------------------------- 
238    _Mul_1_output_0_De..ear_Output (Conversion, DequantizeLinear)    [b:1,h:96,w:96,c:3]                      55,296   _Mul_1_output_0_Qu..ear_Output   |                  -55,296(-100.0%)    
------ ---------------------------------------------------------------- ---------------------- ------------ ----------- -------------------------------- --- ---------------- ------------------- ---------------------------------- 
239    _Mul_2_output_0_Qu..ear_Output (Conversion, QuantizeLinear)      [b:1,h:96,w:96,c:3]                      55,296                  _Mul_2_output_0   |                  -55,296(-100.0%)    
------ ---------------------------------------------------------------- ---------------------- ------------ ----------- -------------------------------- --- ---------------- ------------------- ---------------------------------- 
240    _Mul_2_output_0_De..ear_Output (Conversion, DequantizeLinear)    [b:1,h:96,w:96,c:3]                      55,296   _Mul_2_output_0_Qu..ear_Output   |                  -55,296(-100.0%)    
------ ---------------------------------------------------------------- ---------------------- ------------ ----------- -------------------------------- --- ---------------- ------------------- ---------------------------------- 
241    enhanced_rgb_Quant..near_Input (Eltwise, Add)                    [b:1,h:96,w:96,c:3]                      27,648   _Mul_2_output_0_De..ear_Output   |                                      Eltwise/add_[53]                   
                                                                                                                          _Mul_1_output_0_De..ear_Output   | 
------ ---------------------------------------------------------------- ---------------------- ------------ ----------- -------------------------------- --- ---------------- ------------------- ---------------------------------- 
242    enhanced_rgb_Quant..ear_Output (Conversion, QuantizeLinear)      [b:1,h:96,w:96,c:3]                      55,296   enhanced_rgb_Quant..near_Input   |                  -55,296(-100.0%)    
------ ---------------------------------------------------------------- ---------------------- ------------ ----------- -------------------------------- --- ---------------- ------------------- ---------------------------------- 
243    enhanced_rgb (Conversion, DequantizeLinear)                      [b:1,h:96,w:96,c:3]                      55,296   enhanced_rgb_Quant..ear_Output   |                  -55,296(-100.0%)    
------ ---------------------------------------------------------------- ---------------------- ------------ ----------- -------------------------------- --- ---------------- ------------------- ---------------------------------- 
model/c-model: macc=27,777,283/19,330,819 -8,446,464(-30.4%) weights=20,548/5,944 -14,604(-71.1%) activations=--/425,260 io=--/0



Generated C-graph summary
------------------------------------------------------------------------------------------------------------------------
model name            : ghost_esp_dark_w12_m24_gain3_res035_plateau_score_best_monitor_qdq
c-name                : llieai
c-node #              : 55
c-array #             : 124
activations size      : 425260 (1 segment)
weights size          : 5944 (1 segment)
macc                  : 19330819
inputs                : ['input_rgb_output']
outputs               : ['enhanced_rgb_QuantizeLinear_Input_Transpose_0_output']

C-Arrays (124)
------ --------------------------------------------------------------------------- --------------- ------------------------- ------------- --------- 
c_id   name (*_array)                                                              item/size       domain/mem-pool           c-type        comment   
------ --------------------------------------------------------------------------- --------------- ------------------------- ------------- --------- 
0      _Add_1_output_0_output                                                      27648/27648     activations/**default**   u8                      
1      _Add_output_0_output                                                        110592/110592   activations/**default**   u8                      
2      _Clip_1_output_0_0_0__Div_1_output_0_conversion_output                      27648/110592    activations/**default**   float                   
3      _Clip_1_output_0_output                                                     27648/27648     activations/**default**   u8                      
4      _Clip_output_0_bias                                                         3/12            weights/weights           const s32               
5      _Clip_output_0_output                                                       27648/27648     activations/**default**   u8                      
6      _Clip_output_0_scratch0                                                     78/78           activations/**default**   s8                      
7      _Clip_output_0_weights                                                      36/36           weights/weights           const s8                
8      _Concat_1_output_0_output                                                   57600/57600     activations/**default**   u8                      
9      _Constant_10_output_0_DequantizeLinear_Output_const_4D                      1/1             weights/weights           const u8                
10     _Constant_11_output_0_4D                                                    1/4             weights/weights           const float             
11     _Constant_12_output_0_DequantizeLinear_Output_const_4D                      1/1             weights/weights           const u8                
12     _Constant_13_output_0_DequantizeLinear_Output_const_4D                      1/1             weights/weights           const u8                
13     _Constant_16_output_0_4D                                                    1/4             weights/weights           const float             
14     _Constant_17_output_0_4D                                                    1/4             weights/weights           const float             
15     _Constant_18_output_0_DequantizeLinear_Output_const_4D                      1/1             weights/weights           const u8                
16     _Div_1_output_0_output                                                      27648/110592    activations/**default**   float                   
17     _Div_output_0_0_0__Add_1_output_0_conversion_output                         27648/27648     activations/**default**   u8                      
18     _Div_output_0_output                                                        27648/110592    activations/**default**   float                   
19     _Mul_1_output_0_output                                                      27648/27648     activations/**default**   u8                      
20     _Mul_2_output_0_output                                                      27648/27648     activations/**default**   u8                      
21     _Mul_output_0_0_0__Div_output_0_conversion_output                           27648/110592    activations/**default**   float                   
22     _Mul_output_0_output                                                        27648/27648     activations/**default**   u8                      
23     _Resize_1_output_0_output                                                   221184/221184   activations/**default**   u8                      
24     _Resize_output_0_0_1__Concat_1_output_0_conversion_output                   2304/2304       activations/**default**   u8                      
25     _Resize_output_0_output                                                     2304/9216       activations/**default**   float                   
26     _Sub_output_0_0_0__Mul_1_output_0_conversion_output                         27648/27648     activations/**default**   u8                      
27     _Sub_output_0_output                                                        27648/110592    activations/**default**   float                   
28     _blocks_blocks_0_Concat_output_0_output                                     55296/55296     activations/**default**   u8                      
29     _blocks_blocks_0_act_Clip_output_0_output                                   55296/55296     activations/**default**   u8                      
30     _blocks_blocks_0_cheap_cheap_1_Clip_output_0_bias                           12/48           weights/weights           const s32               
31     _blocks_blocks_0_cheap_cheap_1_Clip_output_0_output                         27648/27648     activations/**default**   u8                      
32     _blocks_blocks_0_cheap_cheap_1_Clip_output_0_scratch0                       445/445         activations/**default**   s8                      
33     _blocks_blocks_0_cheap_cheap_1_Clip_output_0_weights                        108/108         weights/weights           const s8                
34     _blocks_blocks_0_primary_primary_1_Clip_output_0_bias                       12/48           weights/weights           const s32               
35     _blocks_blocks_0_primary_primary_1_Clip_output_0_output                     27648/27648     activations/**default**   u8                      
36     _blocks_blocks_0_primary_primary_1_Clip_output_0_scratch0                   216/216         activations/**default**   s8                      
37     _blocks_blocks_0_primary_primary_1_Clip_output_0_weights                    288/288         weights/weights           const s8                
38     _blocks_blocks_0_project_Conv_output_0_bias                                 24/96           weights/weights           const s32               
39     _blocks_blocks_0_project_Conv_output_0_output                               55296/55296     activations/**default**   u8                      
40     _blocks_blocks_0_project_Conv_output_0_scratch0                             336/336         activations/**default**   s8                      
41     _blocks_blocks_0_project_Conv_output_0_weights                              576/576         weights/weights           const s8                
42     _blocks_blocks_1_Concat_output_0_output                                     55296/55296     activations/**default**   u8                      
43     _blocks_blocks_1_act_Clip_output_0_output                                   55296/55296     activations/**default**   u8                      
44     _blocks_blocks_1_cheap_cheap_1_Clip_output_0_bias                           12/48           weights/weights           const s32               
45     _blocks_blocks_1_cheap_cheap_1_Clip_output_0_output                         27648/27648     activations/**default**   u8                      
46     _blocks_blocks_1_cheap_cheap_1_Clip_output_0_scratch0                       445/445         activations/**default**   s8                      
47     _blocks_blocks_1_cheap_cheap_1_Clip_output_0_weights                        108/108         weights/weights           const s8                
48     _blocks_blocks_1_primary_primary_1_Clip_output_0_bias                       12/48           weights/weights           const s32               
49     _blocks_blocks_1_primary_primary_1_Clip_output_0_output                     27648/27648     activations/**default**   u8                      
50     _blocks_blocks_1_primary_primary_1_Clip_output_0_scratch0                   216/216         activations/**default**   s8                      
51     _blocks_blocks_1_primary_primary_1_Clip_output_0_weights                    288/288         weights/weights           const s8                
52     _blocks_blocks_1_project_Conv_output_0_bias                                 24/96           weights/weights           const s32               
53     _blocks_blocks_1_project_Conv_output_0_output                               55296/55296     activations/**default**   u8                      
54     _blocks_blocks_1_project_Conv_output_0_scratch0                             336/336         activations/**default**   s8                      
55     _blocks_blocks_1_project_Conv_output_0_weights                              576/576         weights/weights           const s8                
56     _blocks_blocks_2_Concat_output_0_output                                     55296/55296     activations/**default**   u8                      
57     _blocks_blocks_2_act_Clip_output_0_output                                   55296/55296     activations/**default**   u8                      
58     _blocks_blocks_2_cheap_cheap_1_Clip_output_0_bias                           12/48           weights/weights           const s32               
59     _blocks_blocks_2_cheap_cheap_1_Clip_output_0_output                         27648/27648     activations/**default**   u8                      
60     _blocks_blocks_2_cheap_cheap_1_Clip_output_0_scratch0                       445/445         activations/**default**   s8                      
61     _blocks_blocks_2_cheap_cheap_1_Clip_output_0_weights                        108/108         weights/weights           const s8                
62     _blocks_blocks_2_primary_primary_1_Clip_output_0_bias                       12/48           weights/weights           const s32               
63     _blocks_blocks_2_primary_primary_1_Clip_output_0_output                     27648/27648     activations/**default**   u8                      
64     _blocks_blocks_2_primary_primary_1_Clip_output_0_scratch0                   216/216         activations/**default**   s8                      
65     _blocks_blocks_2_primary_primary_1_Clip_output_0_weights                    288/288         weights/weights           const s8                
66     _blocks_blocks_2_project_Conv_output_0_bias                                 24/96           weights/weights           const s32               
67     _blocks_blocks_2_project_Conv_output_0_output                               55296/55296     activations/**default**   u8                      
68     _blocks_blocks_2_project_Conv_output_0_scratch0                             336/336         activations/**default**   s8                      
69     _blocks_blocks_2_project_Conv_output_0_weights                              576/576         weights/weights           const s8                
70     _dark_fuse_dark_fuse_1_Clip_output_0_bias                                   24/96           weights/weights           const s32               
71     _dark_fuse_dark_fuse_1_Clip_output_0_output                                 55296/55296     activations/**default**   u8                      
72     _dark_fuse_dark_fuse_1_Clip_output_0_scratch0                               340/340         activations/**default**   s8                      
73     _dark_fuse_dark_fuse_1_Clip_output_0_weights                                600/600         weights/weights           const s8                
74     _dark_map_AveragePool_output_0_output                                       9216/36864      activations/**default**   float                   
75     _dark_map_Clip_output_0_output                                              9216/36864      activations/**default**   float                   
76     _dark_map_Constant_1_output_0_4D                                            1/4             weights/weights           const float             
77     _dark_map_Constant_2_output_0_4D                                            1/4             weights/weights           const float             
78     _dark_map_Constant_output_0_4D                                              1/4             weights/weights           const float             
79     _dark_map_Div_output_0_output                                               9216/36864      activations/**default**   float                   
80     _dark_map_Mul_output_0_0_0__dark_map_ReduceSum_output_0_conversion_output   27648/110592    activations/**default**   float                   
81     _dark_map_Mul_output_0_output                                               27648/27648     activations/**default**   u8                      
82     _dark_map_ReduceSum_output_0_output                                         9216/36864      activations/**default**   float                   
83     _dark_map_Sub_1_output_0_output                                             9216/36864      activations/**default**   float                   
84     _dark_map_Sub_output_0_output                                               9216/36864      activations/**default**   float                   
85     _down_depthwise_depthwise_1_Clip_output_0_bias                              12/48           weights/weights           const s32               
86     _down_depthwise_depthwise_1_Clip_output_0_output                            27648/27648     activations/**default**   u8                      
87     _down_depthwise_depthwise_1_Clip_output_0_scratch0                          445/445         activations/**default**   s8                      
88     _down_depthwise_depthwise_1_Clip_output_0_weights                           108/108         weights/weights           const s8                
89     _down_pointwise_pointwise_1_Clip_output_0_bias                              24/96           weights/weights           const s32               
90     _down_pointwise_pointwise_1_Clip_output_0_output                            55296/55296     activations/**default**   u8                      
91     _down_pointwise_pointwise_1_Clip_output_0_scratch0                          288/288         activations/**default**   s8                      
92     _down_pointwise_pointwise_1_Clip_output_0_weights                           288/288         weights/weights           const s8                
93     _refine_Concat_output_0_output                                              110592/110592   activations/**default**   u8                      
94     _refine_act_Clip_output_0_output                                            110592/110592   activations/**default**   u8                      
95     _refine_cheap_cheap_1_Clip_output_0_bias                                    6/24            weights/weights           const s32               
96     _refine_cheap_cheap_1_Clip_output_0_output                                  55296/55296     activations/**default**   u8                      
97     _refine_cheap_cheap_1_Clip_output_0_scratch0                                223/223         activations/**default**   s8                      
98     _refine_cheap_cheap_1_Clip_output_0_weights                                 54/54           weights/weights           const s8                
99     _refine_primary_primary_1_Clip_output_0_bias                                6/24            weights/weights           const s32               
100    _refine_primary_primary_1_Clip_output_0_output                              55296/55296     activations/**default**   u8                      
101    _refine_primary_primary_1_Clip_output_0_scratch0                            108/108         activations/**default**   s8                      
102    _refine_primary_primary_1_Clip_output_0_weights                             72/72           weights/weights           const s8                
103    _refine_project_Conv_output_0_bias                                          12/48           weights/weights           const s32               
104    _refine_project_Conv_output_0_output                                        110592/110592   activations/**default**   u8                      
105    _refine_project_Conv_output_0_scratch0                                      168/168         activations/**default**   s8                      
106    _refine_project_Conv_output_0_weights                                       144/144         weights/weights           const s8                
107    _residual_head_Conv_output_0_bias                                           3/12            weights/weights           const s32               
108    _residual_head_Conv_output_0_output                                         27648/27648     activations/**default**   u8                      
109    _residual_head_Conv_output_0_scratch0                                       78/78           activations/**default**   s8                      
110    _residual_head_Conv_output_0_weights                                        36/36           weights/weights           const s8                
111    _stem_stem_1_Clip_output_0_bias                                             12/48           weights/weights           const s32               
112    _stem_stem_1_Clip_output_0_output                                           110592/110592   activations/**default**   u8                      
113    _stem_stem_1_Clip_output_0_scratch0                                         924/924         activations/**default**   s8                      
114    _stem_stem_1_Clip_output_0_weights                                          324/324         weights/weights           const s8                
115    _up_up_1_Clip_output_0_bias                                                 12/48           weights/weights           const s32               
116    _up_up_1_Clip_output_0_output                                               110592/110592   activations/**default**   u8                      
117    _up_up_1_Clip_output_0_scratch0                                             216/216         activations/**default**   s8                      
118    _up_up_1_Clip_output_0_weights                                              288/288         weights/weights           const s8                
119    enhanced_rgb_QuantizeLinear_Input_Transpose_0_output                        27648/27648     activations/**default**   u8            /output   
120    enhanced_rgb_QuantizeLinear_Input_output                                    27648/27648     activations/**default**   u8                      
121    input_rgb_Transpose_output                                                  27648/27649     activations/**default**   u8                      
122    input_rgb_output                                                            27648/27648     activations/**default**   u8            /input    
123    onnxMul_199_DequantizeLinear_Output_const                                   3/3             weights/weights           const u8                
------ --------------------------------------------------------------------------- --------------- ------------------------- ------------- --------- 

C-Layers (55)
------ -------------------------------------------------------------------- ----- --------------- --------- ----- ------------------------------------------------------------------------------ ------------------------- 
c_id   name (*_layer)                                                       id    layer_type      macc      rom   tensors                                                                        shape (array id)          
------ -------------------------------------------------------------------- ----- --------------- --------- ----- ------------------------------------------------------------------------------ ------------------------- 
0      input_rgb_Transpose                                                  2     Transpose       13824     0     I: input_rgb_output                                                            uint8(1x3x96x96) (122)    
                                                                                                                  O: input_rgb_Transpose_output                                                  uint8(1x96x96x3) (121)    
------ -------------------------------------------------------------------- ----- --------------- --------- ----- ------------------------------------------------------------------------------ ------------------------- 
1      _dark_map_Mul_output_0                                               111   Eltwise/mul     27648     3     I: input_rgb_Transpose_output                                                  uint8(1x96x96x3) (121)    
                                                                                                                  W: onnxMul_199_DequantizeLinear_Output_const                                   uint8(1x1x3) (123)        
                                                                                                                  O: _dark_map_Mul_output_0_output                                               uint8(1x96x96x3) (81)     
------ -------------------------------------------------------------------- ----- --------------- --------- ----- ------------------------------------------------------------------------------ ------------------------- 
2      _dark_map_Mul_output_0_0_0__dark_map_ReduceSum_output_0_conversion   111   Conversion      55296     0     I: _dark_map_Mul_output_0_output                                               uint8(1x96x96x3) (81)     
                                                                                                                  O: _dark_map_Mul_output_0_0_0__dark_map_ReduceSum_output_0_conversion_output   f32(1x96x96x3) (80)       
------ -------------------------------------------------------------------- ----- --------------- --------- ----- ------------------------------------------------------------------------------ ------------------------- 
3      _dark_map_ReduceSum_output_0                                         117   Reduce          27648     0     I: _dark_map_Mul_output_0_0_0__dark_map_ReduceSum_output_0_conversion_output   f32(1x96x96x3) (80)       
                                                                                                                  O: _dark_map_ReduceSum_output_0_output                                         f32(1x96x96x1) (82)       
------ -------------------------------------------------------------------- ----- --------------- --------- ----- ------------------------------------------------------------------------------ ------------------------- 
4      _dark_map_Sub_output_0                                               119   Eltwise/sub     1         4     I: _dark_map_ReduceSum_output_0_output                                         f32(1x96x96x1) (82)       
                                                                                                                  W: _dark_map_Constant_output_0_4D                                              f32(1x1x1) (78)           
                                                                                                                  O: _dark_map_Sub_output_0_output                                               f32(1x96x96x1) (84)       
------ -------------------------------------------------------------------- ----- --------------- --------- ----- ------------------------------------------------------------------------------ ------------------------- 
5      _dark_map_AveragePool_output_0                                       121   Pool            230400    0     I: _dark_map_Sub_output_0_output                                               f32(1x96x96x1) (84)       
                                                                                                                  O: _dark_map_AveragePool_output_0_output                                       f32(1x96x96x1) (74)       
------ -------------------------------------------------------------------- ----- --------------- --------- ----- ------------------------------------------------------------------------------ ------------------------- 
6      _dark_map_Sub_1_output_0                                             123   Eltwise/sub     9216      4     I: _dark_map_AveragePool_output_0_output                                       f32(1x96x96x1) (74)       
                                                                                                                  W: _dark_map_Constant_1_output_0_4D                                            f32(1x1x1) (76)           
                                                                                                                  O: _dark_map_Sub_1_output_0_output                                             f32(1x96x96x1) (83)       
------ -------------------------------------------------------------------- ----- --------------- --------- ----- ------------------------------------------------------------------------------ ------------------------- 
7      _dark_map_Div_output_0                                               125   Eltwise/div     46080     4     I: _dark_map_Sub_1_output_0_output                                             f32(1x96x96x1) (83)       
                                                                                                                  W: _dark_map_Constant_2_output_0_4D                                            f32(1x1x1) (77)           
                                                                                                                  O: _dark_map_Div_output_0_output                                               f32(1x96x96x1) (79)       
------ -------------------------------------------------------------------- ----- --------------- --------- ----- ------------------------------------------------------------------------------ ------------------------- 
8      _dark_map_Clip_output_0                                              127   Nonlinearity    18432     0     I: _dark_map_Div_output_0_output                                               f32(1x96x96x1) (79)       
                                                                                                                  O: _dark_map_Clip_output_0_output                                              f32(1x96x96x1) (75)       
------ -------------------------------------------------------------------- ----- --------------- --------- ----- ------------------------------------------------------------------------------ ------------------------- 
9      _Resize_output_0                                                     135   Resize          0         0     I: _dark_map_Clip_output_0_output                                              f32(1x96x96x1) (75)       
                                                                                                                  O: _Resize_output_0_output                                                     f32(1x48x48x1) (25)       
------ -------------------------------------------------------------------- ----- --------------- --------- ----- ------------------------------------------------------------------------------ ------------------------- 
10     _Resize_output_0_0_1__Concat_1_output_0_conversion                   135   Conversion      4608      0     I: _Resize_output_0_output                                                     f32(1x48x48x1) (25)       
                                                                                                                  O: _Resize_output_0_0_1__Concat_1_output_0_conversion_output                   uint8(1x48x48x1) (24)     
------ -------------------------------------------------------------------- ----- --------------- --------- ----- ------------------------------------------------------------------------------ ------------------------- 
11     _stem_stem_1_Clip_output_0                                           112   Conv2D          2985996   372   I: input_rgb_Transpose_output                                                  uint8(1x96x96x3) (121)    
                                                                                                                  S: _stem_stem_1_Clip_output_0_scratch0                                                                   
                                                                                                                  W: _stem_stem_1_Clip_output_0_weights                                          int8(12x3x3x3) (114)      
                                                                                                                  W: _stem_stem_1_Clip_output_0_bias                                             int32(12) (111)           
                                                                                                                  O: _stem_stem_1_Clip_output_0_output                                           uint8(1x96x96x12) (112)   
------ -------------------------------------------------------------------- ----- --------------- --------- ----- ------------------------------------------------------------------------------ ------------------------- 
12     _down_depthwise_depthwise_1_Clip_output_0                            118   Conv2D          248844    156   I: _stem_stem_1_Clip_output_0_output                                           uint8(1x96x96x12) (112)   
                                                                                                                  S: _down_depthwise_depthwise_1_Clip_output_0_scratch0                                                    
                                                                                                                  W: _down_depthwise_depthwise_1_Clip_output_0_weights                           int8(1x3x3x12) (88)       
                                                                                                                  W: _down_depthwise_depthwise_1_Clip_output_0_bias                              int32(12) (85)            
                                                                                                                  O: _down_depthwise_depthwise_1_Clip_output_0_output                            uint8(1x48x48x12) (86)    
------ -------------------------------------------------------------------- ----- --------------- --------- ----- ------------------------------------------------------------------------------ ------------------------- 
13     _down_pointwise_pointwise_1_Clip_output_0                            124   Conv2D          663576    384   I: _down_depthwise_depthwise_1_Clip_output_0_output                            uint8(1x48x48x12) (86)    
                                                                                                                  S: _down_pointwise_pointwise_1_Clip_output_0_scratch0                                                    
                                                                                                                  W: _down_pointwise_pointwise_1_Clip_output_0_weights                           int8(24x1x1x12) (92)      
                                                                                                                  W: _down_pointwise_pointwise_1_Clip_output_0_bias                              int32(24) (89)            
                                                                                                                  O: _down_pointwise_pointwise_1_Clip_output_0_output                            uint8(1x48x48x24) (90)    
------ -------------------------------------------------------------------- ----- --------------- --------- ----- ------------------------------------------------------------------------------ ------------------------- 
14     _blocks_blocks_0_primary_primary_1_Clip_output_0                     130   Conv2D          663564    336   I: _down_pointwise_pointwise_1_Clip_output_0_output                            uint8(1x48x48x24) (90)    
                                                                                                                  S: _blocks_blocks_0_primary_primary_1_Clip_output_0_scratch0                                             
                                                                                                                  W: _blocks_blocks_0_primary_primary_1_Clip_output_0_weights                    int8(12x1x1x24) (37)      
                                                                                                                  W: _blocks_blocks_0_primary_primary_1_Clip_output_0_bias                       int32(12) (34)            
                                                                                                                  O: _blocks_blocks_0_primary_primary_1_Clip_output_0_output                     uint8(1x48x48x12) (35)    
------ -------------------------------------------------------------------- ----- --------------- --------- ----- ------------------------------------------------------------------------------ ------------------------- 
15     _blocks_blocks_0_cheap_cheap_1_Clip_output_0                         136   Conv2D          248844    156   I: _blocks_blocks_0_primary_primary_1_Clip_output_0_output                     uint8(1x48x48x12) (35)    
                                                                                                                  S: _blocks_blocks_0_cheap_cheap_1_Clip_output_0_scratch0                                                 
                                                                                                                  W: _blocks_blocks_0_cheap_cheap_1_Clip_output_0_weights                        int8(1x3x3x12) (33)       
                                                                                                                  W: _blocks_blocks_0_cheap_cheap_1_Clip_output_0_bias                           int32(12) (30)            
                                                                                                                  O: _blocks_blocks_0_cheap_cheap_1_Clip_output_0_output                         uint8(1x48x48x12) (31)    
------ -------------------------------------------------------------------- ----- --------------- --------- ----- ------------------------------------------------------------------------------ ------------------------- 
16     _blocks_blocks_0_Concat_output_0                                     141   Concat          0         0     I: _blocks_blocks_0_primary_primary_1_Clip_output_0_output                     uint8(1x48x48x12) (35)    
                                                                                                                  I: _blocks_blocks_0_cheap_cheap_1_Clip_output_0_output                         uint8(1x48x48x12) (35)    
                                                                                                                  O: _blocks_blocks_0_Concat_output_0_output                                     uint8(1x48x48x24) (28)    
------ -------------------------------------------------------------------- ----- --------------- --------- ----- ------------------------------------------------------------------------------ ------------------------- 
17     _blocks_blocks_0_project_Conv_output_0                               144   Conv2D          1327128   672   I: _blocks_blocks_0_Concat_output_0_output                                     uint8(1x48x48x24) (28)    
                                                                                                                  S: _blocks_blocks_0_project_Conv_output_0_scratch0                                                       
                                                                                                                  W: _blocks_blocks_0_project_Conv_output_0_weights                              int8(24x1x1x24) (41)      
                                                                                                                  W: _blocks_blocks_0_project_Conv_output_0_bias                                 int32(24) (38)            
                                                                                                                  O: _blocks_blocks_0_project_Conv_output_0_output                               uint8(1x48x48x24) (39)    
------ -------------------------------------------------------------------- ----- --------------- --------- ----- ------------------------------------------------------------------------------ ------------------------- 
18     _blocks_blocks_0_act_Clip_output_0                                   147   Eltwise/add     55296     0     I: _down_pointwise_pointwise_1_Clip_output_0_output                            uint8(1x48x48x24) (90)    
                                                                                                                  I: _blocks_blocks_0_project_Conv_output_0_output                               uint8(1x48x48x24) (90)    
                                                                                                                  O: _blocks_blocks_0_act_Clip_output_0_output                                   uint8(1x48x48x24) (29)    
------ -------------------------------------------------------------------- ----- --------------- --------- ----- ------------------------------------------------------------------------------ ------------------------- 
19     _blocks_blocks_1_primary_primary_1_Clip_output_0                     150   Conv2D          663564    336   I: _blocks_blocks_0_act_Clip_output_0_output                                   uint8(1x48x48x24) (29)    
                                                                                                                  S: _blocks_blocks_1_primary_primary_1_Clip_output_0_scratch0                                             
                                                                                                                  W: _blocks_blocks_1_primary_primary_1_Clip_output_0_weights                    int8(12x1x1x24) (51)      
                                                                                                                  W: _blocks_blocks_1_primary_primary_1_Clip_output_0_bias                       int32(12) (48)            
                                                                                                                  O: _blocks_blocks_1_primary_primary_1_Clip_output_0_output                     uint8(1x48x48x12) (49)    
------ -------------------------------------------------------------------- ----- --------------- --------- ----- ------------------------------------------------------------------------------ ------------------------- 
20     _blocks_blocks_1_cheap_cheap_1_Clip_output_0                         153   Conv2D          248844    156   I: _blocks_blocks_1_primary_primary_1_Clip_output_0_output                     uint8(1x48x48x12) (49)    
                                                                                                                  S: _blocks_blocks_1_cheap_cheap_1_Clip_output_0_scratch0                                                 
                                                                                                                  W: _blocks_blocks_1_cheap_cheap_1_Clip_output_0_weights                        int8(1x3x3x12) (47)       
                                                                                                                  W: _blocks_blocks_1_cheap_cheap_1_Clip_output_0_bias                           int32(12) (44)            
                                                                                                                  O: _blocks_blocks_1_cheap_cheap_1_Clip_output_0_output                         uint8(1x48x48x12) (45)    
------ -------------------------------------------------------------------- ----- --------------- --------- ----- ------------------------------------------------------------------------------ ------------------------- 
21     _blocks_blocks_1_Concat_output_0                                     156   Concat          0         0     I: _blocks_blocks_1_primary_primary_1_Clip_output_0_output                     uint8(1x48x48x12) (49)    
                                                                                                                  I: _blocks_blocks_1_cheap_cheap_1_Clip_output_0_output                         uint8(1x48x48x12) (49)    
                                                                                                                  O: _blocks_blocks_1_Concat_output_0_output                                     uint8(1x48x48x24) (42)    
------ -------------------------------------------------------------------- ----- --------------- --------- ----- ------------------------------------------------------------------------------ ------------------------- 
22     _blocks_blocks_1_project_Conv_output_0                               159   Conv2D          1327128   672   I: _blocks_blocks_1_Concat_output_0_output                                     uint8(1x48x48x24) (42)    
                                                                                                                  S: _blocks_blocks_1_project_Conv_output_0_scratch0                                                       
                                                                                                                  W: _blocks_blocks_1_project_Conv_output_0_weights                              int8(24x1x1x24) (55)      
                                                                                                                  W: _blocks_blocks_1_project_Conv_output_0_bias                                 int32(24) (52)            
                                                                                                                  O: _blocks_blocks_1_project_Conv_output_0_output                               uint8(1x48x48x24) (53)    
------ -------------------------------------------------------------------- ----- --------------- --------- ----- ------------------------------------------------------------------------------ ------------------------- 
23     _blocks_blocks_1_act_Clip_output_0                                   162   Eltwise/add     55296     0     I: _blocks_blocks_0_act_Clip_output_0_output                                   uint8(1x48x48x24) (29)    
                                                                                                                  I: _blocks_blocks_1_project_Conv_output_0_output                               uint8(1x48x48x24) (29)    
                                                                                                                  O: _blocks_blocks_1_act_Clip_output_0_output                                   uint8(1x48x48x24) (43)    
------ -------------------------------------------------------------------- ----- --------------- --------- ----- ------------------------------------------------------------------------------ ------------------------- 
24     _blocks_blocks_2_primary_primary_1_Clip_output_0                     165   Conv2D          663564    336   I: _blocks_blocks_1_act_Clip_output_0_output                                   uint8(1x48x48x24) (43)    
                                                                                                                  S: _blocks_blocks_2_primary_primary_1_Clip_output_0_scratch0                                             
                                                                                                                  W: _blocks_blocks_2_primary_primary_1_Clip_output_0_weights                    int8(12x1x1x24) (65)      
                                                                                                                  W: _blocks_blocks_2_primary_primary_1_Clip_output_0_bias                       int32(12) (62)            
                                                                                                                  O: _blocks_blocks_2_primary_primary_1_Clip_output_0_output                     uint8(1x48x48x12) (63)    
------ -------------------------------------------------------------------- ----- --------------- --------- ----- ------------------------------------------------------------------------------ ------------------------- 
25     _blocks_blocks_2_cheap_cheap_1_Clip_output_0                         168   Conv2D          248844    156   I: _blocks_blocks_2_primary_primary_1_Clip_output_0_output                     uint8(1x48x48x12) (63)    
                                                                                                                  S: _blocks_blocks_2_cheap_cheap_1_Clip_output_0_scratch0                                                 
                                                                                                                  W: _blocks_blocks_2_cheap_cheap_1_Clip_output_0_weights                        int8(1x3x3x12) (61)       
                                                                                                                  W: _blocks_blocks_2_cheap_cheap_1_Clip_output_0_bias                           int32(12) (58)            
                                                                                                                  O: _blocks_blocks_2_cheap_cheap_1_Clip_output_0_output                         uint8(1x48x48x12) (59)    
------ -------------------------------------------------------------------- ----- --------------- --------- ----- ------------------------------------------------------------------------------ ------------------------- 
26     _blocks_blocks_2_Concat_output_0                                     171   Concat          0         0     I: _blocks_blocks_2_primary_primary_1_Clip_output_0_output                     uint8(1x48x48x12) (63)    
                                                                                                                  I: _blocks_blocks_2_cheap_cheap_1_Clip_output_0_output                         uint8(1x48x48x12) (63)    
                                                                                                                  O: _blocks_blocks_2_Concat_output_0_output                                     uint8(1x48x48x24) (56)    
------ -------------------------------------------------------------------- ----- --------------- --------- ----- ------------------------------------------------------------------------------ ------------------------- 
27     _blocks_blocks_2_project_Conv_output_0                               174   Conv2D          1327128   672   I: _blocks_blocks_2_Concat_output_0_output                                     uint8(1x48x48x24) (56)    
                                                                                                                  S: _blocks_blocks_2_project_Conv_output_0_scratch0                                                       
                                                                                                                  W: _blocks_blocks_2_project_Conv_output_0_weights                              int8(24x1x1x24) (69)      
                                                                                                                  W: _blocks_blocks_2_project_Conv_output_0_bias                                 int32(24) (66)            
                                                                                                                  O: _blocks_blocks_2_project_Conv_output_0_output                               uint8(1x48x48x24) (67)    
------ -------------------------------------------------------------------- ----- --------------- --------- ----- ------------------------------------------------------------------------------ ------------------------- 
28     _blocks_blocks_2_act_Clip_output_0                                   177   Eltwise/add     55296     0     I: _blocks_blocks_1_act_Clip_output_0_output                                   uint8(1x48x48x24) (43)    
                                                                                                                  I: _blocks_blocks_2_project_Conv_output_0_output                               uint8(1x48x48x24) (43)    
                                                                                                                  O: _blocks_blocks_2_act_Clip_output_0_output                                   uint8(1x48x48x24) (57)    
------ -------------------------------------------------------------------- ----- --------------- --------- ----- ------------------------------------------------------------------------------ ------------------------- 
29     _Concat_1_output_0                                                   180   Concat          0         0     I: _blocks_blocks_2_act_Clip_output_0_output                                   uint8(1x48x48x24) (57)    
                                                                                                                  I: _Resize_output_0_0_1__Concat_1_output_0_conversion_output                   uint8(1x48x48x24) (57)    
                                                                                                                  O: _Concat_1_output_0_output                                                   uint8(1x48x48x25) (8)     
------ -------------------------------------------------------------------- ----- --------------- --------- ----- ------------------------------------------------------------------------------ ------------------------- 
30     _dark_fuse_dark_fuse_1_Clip_output_0                                 183   Conv2D          1382424   696   I: _Concat_1_output_0_output                                                   uint8(1x48x48x25) (8)     
                                                                                                                  S: _dark_fuse_dark_fuse_1_Clip_output_0_scratch0                                                         
                                                                                                                  W: _dark_fuse_dark_fuse_1_Clip_output_0_weights                                int8(24x1x1x25) (73)      
                                                                                                                  W: _dark_fuse_dark_fuse_1_Clip_output_0_bias                                   int32(24) (70)            
                                                                                                                  O: _dark_fuse_dark_fuse_1_Clip_output_0_output                                 uint8(1x48x48x24) (71)    
------ -------------------------------------------------------------------- ----- --------------- --------- ----- ------------------------------------------------------------------------------ ------------------------- 
31     _Resize_1_output_0                                                   189   Resize          0         0     I: _dark_fuse_dark_fuse_1_Clip_output_0_output                                 uint8(1x48x48x24) (71)    
                                                                                                                  O: _Resize_1_output_0_output                                                   uint8(1x96x96x24) (23)    
------ -------------------------------------------------------------------- ----- --------------- --------- ----- ------------------------------------------------------------------------------ ------------------------- 
32     _up_up_1_Clip_output_0                                               192   Conv2D          2654220   336   I: _Resize_1_output_0_output                                                   uint8(1x96x96x24) (23)    
                                                                                                                  S: _up_up_1_Clip_output_0_scratch0                                                                       
                                                                                                                  W: _up_up_1_Clip_output_0_weights                                              int8(12x1x1x24) (118)     
                                                                                                                  W: _up_up_1_Clip_output_0_bias                                                 int32(12) (115)           
                                                                                                                  O: _up_up_1_Clip_output_0_output                                               uint8(1x96x96x12) (116)   
------ -------------------------------------------------------------------- ----- --------------- --------- ----- ------------------------------------------------------------------------------ ------------------------- 
33     _Add_output_0                                                        195   Eltwise/add     110592    0     I: _up_up_1_Clip_output_0_output                                               uint8(1x96x96x12) (116)   
                                                                                                                  I: _stem_stem_1_Clip_output_0_output                                           uint8(1x96x96x12) (116)   
                                                                                                                  O: _Add_output_0_output                                                        uint8(1x96x96x12) (1)     
------ -------------------------------------------------------------------- ----- --------------- --------- ----- ------------------------------------------------------------------------------ ------------------------- 
34     _refine_primary_primary_1_Clip_output_0                              198   Conv2D          663558    96    I: _Add_output_0_output                                                        uint8(1x96x96x12) (1)     
                                                                                                                  S: _refine_primary_primary_1_Clip_output_0_scratch0                                                      
                                                                                                                  W: _refine_primary_primary_1_Clip_output_0_weights                             int8(6x1x1x12) (102)      
                                                                                                                  W: _refine_primary_primary_1_Clip_output_0_bias                                int32(6) (99)             
                                                                                                                  O: _refine_primary_primary_1_Clip_output_0_output                              uint8(1x96x96x6) (100)    
------ -------------------------------------------------------------------- ----- --------------- --------- ----- ------------------------------------------------------------------------------ ------------------------- 
35     _refine_cheap_cheap_1_Clip_output_0                                  201   Conv2D          497670    78    I: _refine_primary_primary_1_Clip_output_0_output                              uint8(1x96x96x6) (100)    
                                                                                                                  S: _refine_cheap_cheap_1_Clip_output_0_scratch0                                                          
                                                                                                                  W: _refine_cheap_cheap_1_Clip_output_0_weights                                 int8(1x3x3x6) (98)        
                                                                                                                  W: _refine_cheap_cheap_1_Clip_output_0_bias                                    int32(6) (95)             
                                                                                                                  O: _refine_cheap_cheap_1_Clip_output_0_output                                  uint8(1x96x96x6) (96)     
------ -------------------------------------------------------------------- ----- --------------- --------- ----- ------------------------------------------------------------------------------ ------------------------- 
36     _refine_Concat_output_0                                              204   Concat          0         0     I: _refine_primary_primary_1_Clip_output_0_output                              uint8(1x96x96x6) (100)    
                                                                                                                  I: _refine_cheap_cheap_1_Clip_output_0_output                                  uint8(1x96x96x6) (100)    
                                                                                                                  O: _refine_Concat_output_0_output                                              uint8(1x96x96x12) (93)    
------ -------------------------------------------------------------------- ----- --------------- --------- ----- ------------------------------------------------------------------------------ ------------------------- 
37     _refine_project_Conv_output_0                                        207   Conv2D          1327116   192   I: _refine_Concat_output_0_output                                              uint8(1x96x96x12) (93)    
                                                                                                                  S: _refine_project_Conv_output_0_scratch0                                                                
                                                                                                                  W: _refine_project_Conv_output_0_weights                                       int8(12x1x1x12) (106)     
                                                                                                                  W: _refine_project_Conv_output_0_bias                                          int32(12) (103)           
                                                                                                                  O: _refine_project_Conv_output_0_output                                        uint8(1x96x96x12) (104)   
------ -------------------------------------------------------------------- ----- --------------- --------- ----- ------------------------------------------------------------------------------ ------------------------- 
38     _refine_act_Clip_output_0                                            210   Eltwise/add     110592    0     I: _Add_output_0_output                                                        uint8(1x96x96x12) (1)     
                                                                                                                  I: _refine_project_Conv_output_0_output                                        uint8(1x96x96x12) (1)     
                                                                                                                  O: _refine_act_Clip_output_0_output                                            uint8(1x96x96x12) (94)    
------ -------------------------------------------------------------------- ----- --------------- --------- ----- ------------------------------------------------------------------------------ ------------------------- 
39     _residual_head_Conv_output_0                                         214   Conv2D          331779    48    I: _refine_act_Clip_output_0_output                                            uint8(1x96x96x12) (94)    
                                                                                                                  S: _residual_head_Conv_output_0_scratch0                                                                 
                                                                                                                  W: _residual_head_Conv_output_0_weights                                        int8(3x1x1x12) (110)      
                                                                                                                  W: _residual_head_Conv_output_0_bias                                           int32(3) (107)            
                                                                                                                  O: _residual_head_Conv_output_0_output                                         uint8(1x96x96x3) (108)    
------ -------------------------------------------------------------------- ----- --------------- --------- ----- ------------------------------------------------------------------------------ ------------------------- 
40     _Clip_1_output_0                                                     220   Eltwise/add     27648     1     I: _residual_head_Conv_output_0_output                                         uint8(1x96x96x3) (108)    
                                                                                                                  W: _Constant_13_output_0_DequantizeLinear_Output_const_4D                      uint8(1x1x1) (12)         
                                                                                                                  O: _Clip_1_output_0_output                                                     uint8(1x96x96x3) (3)      
------ -------------------------------------------------------------------- ----- --------------- --------- ----- ------------------------------------------------------------------------------ ------------------------- 
41     _Clip_1_output_0_0_0__Div_1_output_0_conversion                      220   Conversion      55296     0     I: _Clip_1_output_0_output                                                     uint8(1x96x96x3) (3)      
                                                                                                                  O: _Clip_1_output_0_0_0__Div_1_output_0_conversion_output                      f32(1x96x96x3) (2)        
------ -------------------------------------------------------------------- ----- --------------- --------- ----- ------------------------------------------------------------------------------ ------------------------- 
42     _Div_1_output_0                                                      226   Eltwise/div     138240    4     I: _Clip_1_output_0_0_0__Div_1_output_0_conversion_output                      f32(1x96x96x3) (2)        
                                                                                                                  W: _Constant_16_output_0_4D                                                    f32(1x1x1) (13)           
                                                                                                                  O: _Div_1_output_0_output                                                      f32(1x96x96x3) (16)       
------ -------------------------------------------------------------------- ----- --------------- --------- ----- ------------------------------------------------------------------------------ ------------------------- 
43     _Sub_output_0                                                        228   Eltwise/sub     27648     4     I: _Div_1_output_0_output                                                      f32(1x96x96x3) (16)       
                                                                                                                  W: _Constant_17_output_0_4D                                                    f32(1x1x1) (14)           
                                                                                                                  O: _Sub_output_0_output                                                        f32(1x96x96x3) (27)       
------ -------------------------------------------------------------------- ----- --------------- --------- ----- ------------------------------------------------------------------------------ ------------------------- 
44     _Sub_output_0_0_0__Mul_1_output_0_conversion                         228   Conversion      55296     0     I: _Sub_output_0_output                                                        f32(1x96x96x3) (27)       
                                                                                                                  O: _Sub_output_0_0_0__Mul_1_output_0_conversion_output                         uint8(1x96x96x3) (26)     
------ -------------------------------------------------------------------- ----- --------------- --------- ----- ------------------------------------------------------------------------------ ------------------------- 
45     _Mul_1_output_0                                                      234   Eltwise/mul     27648     1     I: _Sub_output_0_0_0__Mul_1_output_0_conversion_output                         uint8(1x96x96x3) (26)     
                                                                                                                  W: _Constant_18_output_0_DequantizeLinear_Output_const_4D                      uint8(1x1x1) (15)         
                                                                                                                  O: _Mul_1_output_0_output                                                      uint8(1x96x96x3) (19)     
------ -------------------------------------------------------------------- ----- --------------- --------- ----- ------------------------------------------------------------------------------ ------------------------- 
46     _Clip_output_0                                                       213   Conv2D          331779    48    I: _refine_act_Clip_output_0_output                                            uint8(1x96x96x12) (94)    
                                                                                                                  S: _Clip_output_0_scratch0                                                                               
                                                                                                                  W: _Clip_output_0_weights                                                      int8(3x1x1x12) (7)        
                                                                                                                  W: _Clip_output_0_bias                                                         int32(3) (4)              
                                                                                                                  O: _Clip_output_0_output                                                       uint8(1x96x96x3) (5)      
------ -------------------------------------------------------------------- ----- --------------- --------- ----- ------------------------------------------------------------------------------ ------------------------- 
47     _Mul_output_0                                                        219   Eltwise/mul     27648     1     I: _Clip_output_0_output                                                       uint8(1x96x96x3) (5)      
                                                                                                                  W: _Constant_10_output_0_DequantizeLinear_Output_const_4D                      uint8(1x1x1) (9)          
                                                                                                                  O: _Mul_output_0_output                                                        uint8(1x96x96x3) (22)     
------ -------------------------------------------------------------------- ----- --------------- --------- ----- ------------------------------------------------------------------------------ ------------------------- 
48     _Mul_output_0_0_0__Div_output_0_conversion                           219   Conversion      55296     0     I: _Mul_output_0_output                                                        uint8(1x96x96x3) (22)     
                                                                                                                  O: _Mul_output_0_0_0__Div_output_0_conversion_output                           f32(1x96x96x3) (21)       
------ -------------------------------------------------------------------- ----- --------------- --------- ----- ------------------------------------------------------------------------------ ------------------------- 
49     _Div_output_0                                                        225   Eltwise/div     138240    4     I: _Mul_output_0_0_0__Div_output_0_conversion_output                           f32(1x96x96x3) (21)       
                                                                                                                  W: _Constant_11_output_0_4D                                                    f32(1x1x1) (10)           
                                                                                                                  O: _Div_output_0_output                                                        f32(1x96x96x3) (18)       
------ -------------------------------------------------------------------- ----- --------------- --------- ----- ------------------------------------------------------------------------------ ------------------------- 
50     _Div_output_0_0_0__Add_1_output_0_conversion                         225   Conversion      55296     0     I: _Div_output_0_output                                                        f32(1x96x96x3) (18)       
                                                                                                                  O: _Div_output_0_0_0__Add_1_output_0_conversion_output                         uint8(1x96x96x3) (17)     
------ -------------------------------------------------------------------- ----- --------------- --------- ----- ------------------------------------------------------------------------------ ------------------------- 
51     _Add_1_output_0                                                      231   Eltwise/add     27648     1     I: _Div_output_0_0_0__Add_1_output_0_conversion_output                         uint8(1x96x96x3) (17)     
                                                                                                                  W: _Constant_12_output_0_DequantizeLinear_Output_const_4D                      uint8(1x1x1) (11)         
                                                                                                                  O: _Add_1_output_0_output                                                      uint8(1x96x96x3) (0)      
------ -------------------------------------------------------------------- ----- --------------- --------- ----- ------------------------------------------------------------------------------ ------------------------- 
52     _Mul_2_output_0                                                      237   Eltwise/mul     27648     0     I: input_rgb_Transpose_output                                                  uint8(1x96x96x3) (121)    
                                                                                                                  I: _Add_1_output_0_output                                                      uint8(1x96x96x3) (121)    
                                                                                                                  O: _Mul_2_output_0_output                                                      uint8(1x96x96x3) (20)     
------ -------------------------------------------------------------------- ----- --------------- --------- ----- ------------------------------------------------------------------------------ ------------------------- 
53     enhanced_rgb_QuantizeLinear_Input                                    241   Eltwise/add     27648     0     I: _Mul_2_output_0_output                                                      uint8(1x96x96x3) (20)     
                                                                                                                  I: _Mul_1_output_0_output                                                      uint8(1x96x96x3) (20)     
                                                                                                                  O: enhanced_rgb_QuantizeLinear_Input_output                                    uint8(1x96x96x3) (120)    
------ -------------------------------------------------------------------- ----- --------------- --------- ----- ------------------------------------------------------------------------------ ------------------------- 
54     enhanced_rgb_QuantizeLinear_Input_Transpose_0                        1     Transpose       13824     0     I: enhanced_rgb_QuantizeLinear_Input_output                                    uint8(1x96x96x3) (120)    
                                                                                                                  O: enhanced_rgb_QuantizeLinear_Input_Transpose_0_output                        uint8(1x3x96x96) (119)    
------ -------------------------------------------------------------------- ----- --------------- --------- ----- ------------------------------------------------------------------------------ ------------------------- 



Number of operations per c-layer
------- ------ ---------------------------------------------- ------------ -------------- 
c_id    m_id   name (type)                                             #op           type 
------- ------ ---------------------------------------------- ------------ -------------- 
0       2      input_rgb_Transpose (Transpose)                      13,824     smul_u8_u8 
1       111    _dark_map_Mul_output_0 (Eltwise/mul)                 27,648       op_u8_s8 
2       111    _dark_map_Mul_outp..conversion (Conversion)          55,296    smul_u8_f32 
3       117    _dark_map_ReduceSum_output_0 (Reduce)                27,648   smul_f32_f32 
4       119    _dark_map_Sub_output_0 (Eltwise/sub)                      1     op_f32_f32 
5       121    _dark_map_AveragePool_output_0 (Pool)               230,400   smul_f32_f32 
6       123    _dark_map_Sub_1_output_0 (Eltwise/sub)                9,216     op_f32_f32 
7       125    _dark_map_Div_output_0 (Eltwise/div)                 46,080     op_f32_f32 
8       127    _dark_map_Clip_output_0 (Nonlinearity)               18,432     op_f32_f32 
9       135    _Resize_output_0 (Resize)                                 0   smul_f32_f32 
10      135    _Resize_output_0_0..conversion (Conversion)           4,608    smul_f32_u8 
11      112    _stem_stem_1_Clip_output_0 (Conv2D)               2,985,996     smul_u8_s8 
12      118    _down_depthwise_de..p_output_0 (Conv2D)             248,844     smul_u8_s8 
13      124    _down_pointwise_po..p_output_0 (Conv2D)             663,576     smul_u8_s8 
14      130    _blocks_blocks_0_p..p_output_0 (Conv2D)             663,564     smul_u8_s8 
15      136    _blocks_blocks_0_c..p_output_0 (Conv2D)             248,844     smul_u8_s8 
16      141    _blocks_blocks_0_C..t_output_0 (Concat)                   0     smul_u8_u8 
17      144    _blocks_blocks_0_p..v_output_0 (Conv2D)           1,327,128     smul_u8_s8 
18      147    _blocks_blocks_0_a..p_output_0 (Eltwise/add)         55,296       op_u8_u8 
19      150    _blocks_blocks_1_p..p_output_0 (Conv2D)             663,564     smul_u8_s8 
20      153    _blocks_blocks_1_c..p_output_0 (Conv2D)             248,844     smul_u8_s8 
21      156    _blocks_blocks_1_C..t_output_0 (Concat)                   0     smul_u8_u8 
22      159    _blocks_blocks_1_p..v_output_0 (Conv2D)           1,327,128     smul_u8_s8 
23      162    _blocks_blocks_1_a..p_output_0 (Eltwise/add)         55,296       op_u8_u8 
24      165    _blocks_blocks_2_p..p_output_0 (Conv2D)             663,564     smul_u8_s8 
25      168    _blocks_blocks_2_c..p_output_0 (Conv2D)             248,844     smul_u8_s8 
26      171    _blocks_blocks_2_C..t_output_0 (Concat)                   0     smul_u8_u8 
27      174    _blocks_blocks_2_p..v_output_0 (Conv2D)           1,327,128     smul_u8_s8 
28      177    _blocks_blocks_2_a..p_output_0 (Eltwise/add)         55,296       op_u8_u8 
29      180    _Concat_1_output_0 (Concat)                               0     smul_u8_u8 
30      183    _dark_fuse_dark_fu..p_output_0 (Conv2D)           1,382,424     smul_u8_s8 
31      189    _Resize_1_output_0 (Resize)                               0     smul_u8_u8 
32      192    _up_up_1_Clip_output_0 (Conv2D)                   2,654,220     smul_u8_s8 
33      195    _Add_output_0 (Eltwise/add)                         110,592       op_u8_u8 
34      198    _refine_primary_pr..p_output_0 (Conv2D)             663,558     smul_u8_s8 
35      201    _refine_cheap_chea..p_output_0 (Conv2D)             497,670     smul_u8_s8 
36      204    _refine_Concat_output_0 (Concat)                          0     smul_u8_u8 
37      207    _refine_project_Conv_output_0 (Conv2D)            1,327,116     smul_u8_s8 
38      210    _refine_act_Clip_output_0 (Eltwise/add)             110,592       op_u8_u8 
39      214    _residual_head_Conv_output_0 (Conv2D)               331,779     smul_u8_s8 
40      220    _Clip_1_output_0 (Eltwise/add)                       27,648       op_u8_s8 
41      220    _Clip_1_output_0_0..conversion (Conversion)          55,296    smul_u8_f32 
42      226    _Div_1_output_0 (Eltwise/div)                       138,240     op_f32_f32 
43      228    _Sub_output_0 (Eltwise/sub)                          27,648     op_f32_f32 
44      228    _Sub_output_0_0_0_..conversion (Conversion)          55,296    smul_f32_u8 
45      234    _Mul_1_output_0 (Eltwise/mul)                        27,648       op_u8_s8 
46      213    _Clip_output_0 (Conv2D)                             331,779     smul_u8_s8 
47      219    _Mul_output_0 (Eltwise/mul)                          27,648       op_u8_s8 
48      219    _Mul_output_0_0_0_..conversion (Conversion)          55,296    smul_u8_f32 
49      225    _Div_output_0 (Eltwise/div)                         138,240     op_f32_f32 
50      225    _Div_output_0_0_0_..conversion (Conversion)          55,296    smul_f32_u8 
51      231    _Add_1_output_0 (Eltwise/add)                        27,648       op_u8_s8 
52      237    _Mul_2_output_0 (Eltwise/mul)                        27,648       op_u8_u8 
53      241    enhanced_rgb_Quant..near_Input (Eltwise/add)         27,648       op_u8_u8 
54      1      enhanced_rgb_Quant..ranspose_0 (Transpose)           13,824     smul_u8_u8 
------- ------ ---------------------------------------------- ------------ -------------- 
total                                                           19,330,819 

Number of operation types
---------------- ------------ ----------- 
operation type              #           % 
---------------- ------------ ----------- 
smul_u8_u8             27,648        0.1% 
op_u8_s8              138,240        0.7% 
smul_u8_f32           165,888        0.9% 
smul_f32_f32          258,048        1.3% 
op_f32_f32            377,857        2.0% 
smul_f32_u8           115,200        0.6% 
smul_u8_s8         17,805,570       92.1% 
op_u8_u8              442,368        2.3% 

Complexity report (model)
------ ------------------------------------------ ------------------------- ------------------------- ---------- 
m_id   name                                       c_macc                    c_rom                     c_id       
------ ------------------------------------------ ------------------------- ------------------------- ---------- 
119    _dark_map_Constant_output_0                |                  0.0%   |                  0.1%   [4]        
123    _dark_map_Constant_1_output_0              |                  0.0%   |                  0.1%   [6]        
125    _dark_map_Constant_2_output_0              |                  0.2%   |                  0.1%   [7]        
225    _Constant_11_output_0                      |                  1.0%   |                  0.1%   [49, 50]   
1      _Constant_16_output_0                      |                  0.1%   |                  0.0%   [54]       
228    _Constant_17_output_0                      |                  0.4%   |                  0.1%   [43, 44]   
111    _dark_map_Mul_output_0                     |                  0.4%   |                  0.1%   [1, 2]     
112    _stem_stem_1_Clip_output_0                 ||||||||||||||||  15.4%   |||||||||          6.3%   [11]       
117    _dark_map_ReduceSum_output_0               |                  0.1%   |                  0.0%   [3]        
118    _down_depthwise_depthwise_1_..p_output_0   ||                 1.3%   ||||               2.6%   [12]       
121    _dark_map_AveragePool_output_0             ||                 1.2%   |                  0.0%   [5]        
124    _down_pointwise_pointwise_1_..p_output_0   ||||               3.4%   |||||||||          6.5%   [13]       
127    _dark_map_Clip_output_0                    |                  0.1%   |                  0.0%   [8]        
130    _blocks_blocks_0_primary_pri..p_output_0   ||||               3.4%   ||||||||           5.7%   [14]       
135    _Resize_output_0                           |                  0.0%   |                  0.0%   [9, 10]    
136    _blocks_blocks_0_cheap_cheap..p_output_0   ||                 1.3%   ||||               2.6%   [15]       
141    _blocks_blocks_0_Concat_output_0           |                  0.0%   |                  0.0%   [16]       
144    _blocks_blocks_0_project_Conv_output_0     |||||||            6.9%   |||||||||||||||   11.3%   [17]       
147    _blocks_blocks_0_act_Clip_output_0         |                  0.3%   |                  0.0%   [18]       
150    _blocks_blocks_1_primary_pri..p_output_0   ||||               3.4%   ||||||||           5.7%   [19]       
153    _blocks_blocks_1_cheap_cheap..p_output_0   ||                 1.3%   ||||               2.6%   [20]       
156    _blocks_blocks_1_Concat_output_0           |                  0.0%   |                  0.0%   [21]       
159    _blocks_blocks_1_project_Conv_output_0     |||||||            6.9%   |||||||||||||||   11.3%   [22]       
162    _blocks_blocks_1_act_Clip_output_0         |                  0.3%   |                  0.0%   [23]       
165    _blocks_blocks_2_primary_pri..p_output_0   ||||               3.4%   ||||||||           5.7%   [24]       
168    _blocks_blocks_2_cheap_cheap..p_output_0   ||                 1.3%   ||||               2.6%   [25]       
171    _blocks_blocks_2_Concat_output_0           |                  0.0%   |                  0.0%   [26]       
174    _blocks_blocks_2_project_Conv_output_0     |||||||            6.9%   |||||||||||||||   11.3%   [27]       
177    _blocks_blocks_2_act_Clip_output_0         |                  0.3%   |                  0.0%   [28]       
180    _Concat_1_output_0                         |                  0.0%   |                  0.0%   [29]       
183    _dark_fuse_dark_fuse_1_Clip_output_0       |||||||            7.2%   ||||||||||||||||  11.7%   [30]       
189    _Resize_1_output_0                         |                  0.0%   |                  0.0%   [31]       
192    _up_up_1_Clip_output_0                     ||||||||||||||    13.7%   ||||||||           5.7%   [32]       
195    _Add_output_0                              |                  0.6%   |                  0.0%   [33]       
198    _refine_primary_primary_1_Clip_output_0    ||||               3.4%   |||                1.6%   [34]       
201    _refine_cheap_cheap_1_Clip_output_0        |||                2.6%   ||                 1.3%   [35]       
204    _refine_Concat_output_0                    |                  0.0%   |                  0.0%   [36]       
207    _refine_project_Conv_output_0              |||||||            6.9%   |||||              3.2%   [37]       
210    _refine_act_Clip_output_0                  |                  0.6%   |                  0.0%   [38]       
213    _Clip_output_0                             ||                 1.7%   ||                 0.8%   [46]       
214    _residual_head_Conv_output_0               ||                 1.7%   ||                 0.8%   [39]       
219    _Mul_output_0                              |                  0.4%   |                  0.0%   [47, 48]   
220    _Clip_1_output_0                           |                  0.4%   |                  0.0%   [40, 41]   
226    _Div_1_output_0                            |                  0.7%   |                  0.1%   [42]       
231    _Add_1_output_0                            |                  0.1%   |                  0.0%   [51]       
234    _Mul_1_output_0                            |                  0.1%   |                  0.0%   [45]       
237    _Mul_2_output_0                            |                  0.1%   |                  0.0%   [52]       
241    enhanced_rgb_QuantizeLinear_Input          |                  0.1%   |                  0.0%   [53]       
------ ------------------------------------------ ------------------------- ------------------------- ---------- 
macc=19,330,819 weights=5,944 act=425,260 ram_io=0
 
 Requested memory size by section - "stm32h7" target
 ------------------------------ -------- -------- -------- --------- 
 module                             text   rodata     data       bss 
 ------------------------------ -------- -------- -------- --------- 
 NetworkRuntime1020_CM7_GCC.a     26,252       32        0         0 
 llieai.o                          2,500    3,190   15,864       608 
 llieai_data.o                        48       16       88         0 
 lib (toolchain)*                    988      624        0         0 
 ------------------------------ -------- -------- -------- --------- 
 RT total**                       29,788    3,862   15,952       608 
 ------------------------------ -------- -------- -------- --------- 
 weights                               0    5,944        0         0 
 activations                           0        0        0   425,260 
 io                                    0        0        0         0 
 ------------------------------ -------- -------- -------- --------- 
 TOTAL                            29,788    9,806   15,952   425,868 
 ------------------------------ -------- -------- -------- --------- 
 *  toolchain objects (libm/libgcc*)
 ** RT AI runtime objects (kernels+infrastructure)
  
  Summary - "stm32h7" target
  --------------------------------------------------
               FLASH (ro)      %*   RAM (rw)      % 
  --------------------------------------------------
  RT total         49,602   89.3%     16,560   3.7% 
  --------------------------------------------------
  TOTAL            55,546            441,820        
  --------------------------------------------------
  *  rt/total


Generated files (7)
----------------------------------------------------------------- 
C:\Users\trann\.stm32cubemx\network_output\llieai_data_params.h   
C:\Users\trann\.stm32cubemx\network_output\llieai_data_params.c   
C:\Users\trann\.stm32cubemx\network_output\llieai_data.h          
C:\Users\trann\.stm32cubemx\network_output\llieai_data.c          
C:\Users\trann\.stm32cubemx\network_output\llieai_config.h        
C:\Users\trann\.stm32cubemx\network_output\llieai.h               
C:\Users\trann\.stm32cubemx\network_output\llieai.c               
